LLBS/LLBSmodel.pth (torch, 224462 bytes, 15 tensors)

features.0.weight f4 [256, 15]
000000 0d 2e a9 bd 44 00 ca 3d 8f 04 86 be c0 61 bb be
       -0.082607366 0.09863332 -0.26175353 -0.36598015
000010 42 35 ac bd e4 a7 f1 3d 53 a9 2e 3e ce 70 08 3e
       -0.084085956 0.11799601 0.1705678 0.13324282
000020 63 1b e0 3c 05 2c ac 3c b0 87 8f 3e a5 dc 17 3e
       0.027356809 0.021017084 0.2803321 0.14830263
000030 e5 97 16 3f dc 04 ec be 5a 3f ef bd e4 ab e0 3d
       0.5882552 -0.46097457 -0.11682005 0.109702855
000040 c8 0f f7 3d 05 e4 6b 3e fb b8 2a 3e ca 02 80 3e
       0.12063557 0.23036201 0.16672127 0.25002128
000050 6e 76 76 3d 37 d1 07 bd 00 e0 7b 3d 7f 70 8b 3d
       0.060171537 -0.033158507 0.06149292 0.06808566
000060 6d c9 89 3e 1d 60 86 3e 44 ee 4c 3d 97 97 f0 3e
       0.26911488 0.26245204 0.050031915 0.46990654
000070 31 bb d3 be 1d 78 a6 bd 68 72 3e 3c a4 0e f3 3c
       -0.41353753 -0.081283785 0.011623956 0.029670067
000080 de 73 78 be 00 ab 5f be ab 80 79 be 31 73 83 bd
       -0.2426295 -0.21842575 -0.24365489 -0.064184554
000090 86 3d 25 be 72 7e 98 bd 3a a1 10 3e e4 2f ac bd
       -0.1613675 -0.074459925 0.14124003 -0.08407572
0000a0 0e d5 83 3e 34 6a 03 3e dc c3 61 be 6c fe 12 bd
       0.25748485 0.12833482 -0.2204737 -0.035887167
0000b0 85 ab e9 3d 30 92 0e 3e 4f b0 b5 bd 29 1e 1e 3e
       0.11409668 0.13922954 -0.08871519 0.15441193
0000c0 68 c0 b1 3e b7 0a 7e 3d 16 2d 5f 3e 35 68 fa bc
       0.34717107 0.062021937 0.21794543 -0.030567268
0000d0 92 a0 aa 3d 3f 9c d4 bc d4 7f 4c be a8 1f 1e be
       0.083314076 -0.02595341 -0.19970638 -0.15441763
0000e0 68 f0 1e 3e de 20 5d bc b9 90 2c 3e fb 31 d5 3d
       0.15521395 -0.013496606 0.16852082 0.10409924
0000f0 bc 2d 44 be ff b3 c7 3e c2 f0 19 3e 4c b5 59 be
       -0.19158071 0.39004514 0.15033248 -0.21260566
000100 f6 4a ee 3d 33 df 0d 3e 9b 3a 56 3e 13 7a ae 3d
       0.116353914 0.13854675 0.20920794 0.085193776
000110 52 e5 6a be 8a 0b 81 bd 49 23 39 3f f6 58 be 3d
       -0.22939041 -0.06301029 0.72319466 0.09294312
000120 23 5e 4b 3f 85 7b 76 bf c8 56 8c bd aa 4a 83 be
       0.79440516 -0.96282226 -0.0685249 -0.25642902
000130 8a 87 4e 3e b6 0e 6b be 57 a6 5e 3e 00 01 0a 3d
       0.20168892 -0.2295483 0.21743141 0.03369236
000140 9a c0 a6 bc ea ca 1a bd 9c 81 ce bd ed 54 da 3d
       -0.020355511 -0.03779117 -0.10083315 0.106607296
000150 17 f7 69 be a1 a7 b7 3c 5c fe 46 3e ec a5 64 be
       -0.22848164 0.022418799 0.19432968 -0.22328919
000160 c9 4c 64 be a1 d4 50 3e 12 38 e1 bb e6 79 66 3e
       -0.22294916 0.20393611 -0.006873139 0.22507438
000170 71 ea b8 bd 44 67 d0 bd 1b e2 8f 3d 3a b5 69 be
       -0.09029091 -0.10175946 0.07025548 -0.22823039
000180 23 e8 7e be 35 7b cf bd 9e ef 01 be bd 45 fc bb
       -0.2489324 -0.10130922 -0.12689063 -0.007698743
000190 bb 42 c5 3c 49 60 48 be 41 d8 11 3e e9 95 4e bd
       0.024079671 -0.1956798 0.1424265 -0.050435934
0001a0 4e c9 0c be 65 5f 9f 3d 27 bf 73 3e d1 ea 09 3e
       -0.13748667 0.07781867 0.23803388 0.13468482
0001b0 1d e6 c6 bb e2 6a 71 3e d9 8f 7f be 70 4b 3b bd
       -0.006069912 0.23575929 -0.24957217 -0.04572624
0001c0 56 41 7d be 2b 3c ba bd 11 65 82 3e db 32 d5 3d
       -0.24731955 -0.090935074 0.25467733 0.104100905
0001d0 4f 89 58 3e c3 5a fb 3d c3 ca 71 bd 6c 14 57 3e
       0.21146129 0.12273171 -0.05903126 0.21003884
0001e0 d5 eb 70 be 5c 66 a1 be fe 9d ab 3e 66 df d3 3e
       -0.23527463 -0.31523407 0.33518976 0.41381377
0001f0 88 08 6b 3d 76 c5 35 be be 1d 7b bd ab ae 12 3e
       0.057381183 -0.17751107 -0.06130766 0.14324443
000200 ac 6d 8e 3e 20 3b ef 3d 59 44 14 bf 91 e7 d1 3c
       0.27818048 0.11681199 -0.5791679 0.025623115
000210 38 3f d9 be 3d 45 f8 3e da 97 1d be 78 89 93 3d
       -0.42431045 0.48490325 -0.15389958 0.072039545
000220 59 f8 99 3c 6d ad da be 2f a3 c5 be 86 e0 0f 3e
       0.01879518 -0.42710438 -0.38601062 0.14050493
000230 95 63 41 be b9 bc 0f 3e d0 a2 48 3d 38 a6 79 be
       -0.18885644 0.14036836 0.048983395 -0.24379814
000240 aa dd 50 be 76 a3 81 3e 43 b6 e9 bd f9 a0 3f be
       -0.20397058 0.25320023 -0.11411717 -0.1871375
000250 54 3f 70 be 1c a6 83 3e ec 55 6e 3e 05 66 38 be
       -0.23461658 0.2571267 0.23274964 -0.18007667
000260 de a4 d9 3c 6a 58 a1 3d 74 13 0c 3e 16 76 90 3b
       0.026567873 0.07878192 0.13679296 0.004408608
000270 cd db 5d 3e 6d ad 6c be 5f 43 0a 3e d4 74 01 3d
       0.21665879 -0.23113032 0.13502263 0.031605557
000280 e6 8e 3f 3e 31 07 20 bd 6c e7 69 3a 6e ec 39 be
       0.18706855 -0.03906936 0.0008922729 -0.18156597
000290 a3 9d 1d 3e e6 74 a9 bc 57 1c 97 bd 25 8a be 3d
       0.15392165 -0.020685624 -0.07378452 0.09303693
0002a0 8d 2b 43 be 92 84 16 3b 55 34 b4 bd fa fe 77 bd
       -0.19059582 0.0022967202 -0.08799044 -0.0605459
0002b0 9c 71 16 be 84 c9 1c be 57 f0 93 bd 2a b4 ba bc
       -0.14691776 -0.15311247 -0.072235756 -0.022790987
0002c0 e8 f2 84 bd 59 8d 2f be b9 65 6b be 95 5e 50 be
       -0.06491643 -0.17143764 -0.22988023 -0.2034858
0002d0 f2 52 22 be 72 c4 bd 3e d9 cb d8 be c1 df d3 be
       -0.15851954 0.37063938 -0.42343023 -0.41381648
0002e0 3f aa 36 3e 3b 8c db 3d d2 b2 27 be 7c 9b 2e 3e
       0.17838381 0.10720106 -0.16376808 0.170515
0002f0 c1 9c 82 3d d7 fa 83 be a7 ba fe 3d 00 c2 29 be
       0.06377555 -0.25777313 0.12437945 -0.16577911
000300 f4 bf e6 3e 18 67 e5 bd 90 bf c9 bd bb ab 66 3d
       0.45068324 -0.11201304 -0.09850991 0.05631612
000310 b4 78 a4 bd 16 14 2a 3e a7 45 11 3e e7 5b 76 3e
       -0.08030835 0.16609225 0.14186727 0.24058495
000320 1b c3 0d be b2 16 4f be e8 b9 26 be bd f1 e7 bd
       -0.13843958 -0.20223501 -0.16281855 -0.11325405
000330 d3 6f 01 be f7 0f 8c bd 29 ad b6 3d 14 dd 6f 3e
       -0.12640314 -0.068389826 0.089197464 0.23424178
000340 b7 91 75 3d fc c5 6b be ce 1d cf 3d 9d ae 5f be
       0.059953418 -0.23024744 0.10113107 -0.21843953
000350 91 c2 1d 3e 87 79 06 3d 95 31 ba 3d 22 27 fe bd
       0.15406252 0.03283074 0.09091488 -0.12409808
000360 b6 84 6e 3e 49 e5 97 bd 86 73 4b 3e 3a 33 14 bc
       0.23292813 -0.074167795 0.19868287 -0.0090454165
000370 fc 97 11 3e 04 e0 c7 bd b2 a5 02 3d 8e ab 95 3d
       0.14218134 -0.097595245 0.0318963 0.07308112
000380 25 2e 08 3d 69 14 3f be ce ce 87 bc 14 51 a1 be
       0.03324713 -0.1866013 -0.016578104 -0.3150717
000390 53 d6 65 be b5 b5 41 be e1 f4 65 be 20 08 80 be
       -0.2244504 -0.18916972 -0.22456695 -0.250062
0003a0 54 bd 99 3d 29 14 3e bd c5 48 58 3e eb 4a cd bd
       0.075068146 -0.046405945 0.2112151 -0.10024055
0003b0 4c 30 9d be b6 bf 96 be ad 96 fe 3e 6b d4 8e 3d
       -0.3070091 -0.2944314 0.49724331 0.06974109
0003c0 4c b3 8d 3d fc 42 80 be 66 a0 90 bd ef 21 8a bd
       0.06918964 -0.25051105 -0.070618436 -0.067447536
0003d0 22 b0 bb bd 4a 31 d1 3b a2 aa 4b be 47 2d 7d bd
       -0.09164454 0.0063840495 -0.1988931 -0.061810758
0003e0 8a a3 83 bc 74 bb 2f be 16 6e 21 3d 31 3b 40 3e
       -0.016069192 -0.17161351 0.039411627 0.1877258
0003f0 64 6e 79 bd c9 89 2a bd d5 52 23 be 24 78 08 3e
       -0.060896292 -0.04163531 -0.15949567 0.1332708

features.0.bias f4 [256]
000000 2e 39 3f be c2 40 61 3e 38 06 30 3e 28 64 a0 bd
       -0.18674156 0.2199736 0.17189872 -0.07831603
000010 60 32 24 3e c8 0b e7 3d b1 91 2a be 2a a1 72 bd
       0.16034842 0.11281544 -0.1665714 -0.05923573
000020 00 64 23 be 0d 3f 7f 3e aa 6d 31 3e f3 37 bd 3d
       -0.15956116 0.24926396 0.1732699 0.09239187
000030 e8 48 34 bb ea 58 91 bd 17 87 2e be dd 18 f3 3d
       -0.0027509276 -0.07097037 -0.1704372 0.11869977
000040 b8 9f 02 be 4a c7 e5 bd c6 89 31 3e af 96 0c be
       -0.1275624 -0.11219652 0.17337713 -0.13729356
000050 65 5e 2f bd 89 36 8c 3d 1e 54 4c 3d d3 15 78 3c
       -0.04281463 0.06846339 0.049884908 0.015141922
000060 aa 70 d8 bd 68 7c 3e 3e 24 a2 81 3e 8b 90 44 bd
       -0.10568364 0.18602145 0.25319016 -0.04798941
000070 7c 2c 6a be dd af 08 3e 7e c4 b9 3c 6f 66 66 3d
       -0.22868532 0.13348337 0.022676703 0.056250032
000080 00 16 78 be bf a9 49 3e b7 a2 a8 3d 94 b4 2d be
       -0.24227142 0.19693659 0.082341604 -0.16963416
000090 ac 9c 70 3c d5 c1 3c 3e 65 82 28 be c0 40 6f be
       0.014685791 0.18433316 -0.16455992 -0.23364544
0000a0 6e 91 c8 bd 1f 32 7d 3e 98 67 bb 3d d6 5a c8 bd
       -0.097933635 0.24726151 0.09150618 -0.097829506
0000b0 36 ee 27 bd 9d f3 9d 3d 2d 2e 18 3d 97 8d 55 be
       -0.04099866 0.07712481 0.03715341 -0.20854793
0000c0 40 60 8d be 1a ae 00 3d d4 b9 14 be 66 9a 27 3e
       -0.27612495 0.031416036 -0.14524013 0.16367492
0000d0 40 3f 7a be 81 72 3b 3e 4b 8b 5e be 8e 55 81 3d
       -0.2443819 0.18305399 -0.21732824 0.063151464
0000e0 a6 d4 82 be b0 ee bd 3d 14 0f 13 bd 94 4d 87 3e
       -0.25552863 0.09274042 -0.03590305 0.26426375
0000f0 2f 69 d0 3d e4 38 15 3e 2a 53 d9 3d 1d 1a 84 be
       0.10176312 0.14572483 0.106115654 -0.25801173
000100 ae 33 48 be dd 84 38 3e 70 3d a5 3e 12 b5 d3 3c
       -0.19550964 0.18019433 0.32273436 0.025843177
000110 d1 f5 79 bc ab 80 7b be b0 c6 41 be 2f 79 06 3e
       -0.015256361 -0.24560802 -0.1892345 0.13132165
000120 e5 dd 36 be 96 dc c8 3d 30 d0 03 be da 3c 06 3e
       -0.17858084 0.098076984 -0.12872386 0.1310915
000130 3e ec 10 bd 67 92 45 3e ff 9f ce bd 14 29 68 be
       -0.035381548 0.1929413 -0.100891106 -0.2267192
000140 c1 6a 2e be 78 08 cb bc 2b 17 2a be 46 80 59 3e
       -0.17032911 -0.024784312 -0.166104 0.21240339
000150 b6 b6 49 3e 1f bf 13 3e 64 14 38 be bf ae e8 bd
       0.19698605 0.14428376 -0.17976528 -0.11361455
000160 ed 88 4c 3e 52 e5 e5 3d 12 a2 4c 3e 18 c9 3a 3e
       0.19974108 0.1122538 0.199837 0.18240774
000170 45 15 85 be da 68 46 be 02 7a e3 3d 71 fc 26 bd
       -0.2599279 -0.19375935 0.111072555 -0.04076809
000180 5c 4f bb bd 59 f8 a5 bd 36 00 cc 3d 0c e0 ed 3d
       -0.09145996 -0.08104009 0.09960978 0.11614999
000190 b5 e4 29 be 52 40 81 be 0c a3 15 3e e0 08 2b 3e
       -0.16591151 -0.25244385 0.14612979 0.16702604
0001a0 05 4f 79 bd c0 d1 b8 3d 52 63 f1 bd d7 63 36 3e
       -0.060866375 0.09024382 -0.11786522 0.17811523
0001b0 c8 cf 8c be d3 23 31 bd 8c e4 5f be ff b0 d3 bd
       -0.27502275 -0.043247055 -0.21864527 -0.10336494
0001c0 17 4c f2 bd 9a 18 37 be 7d d9 0f 3c 9d a7 4e 3e
       -0.11830919 -0.17880479 0.008779881 0.20181127
0001d0 67 1b 16 be 71 fc 58 3d 9e 68 16 3d 50 cb 33 be
       -0.1465889 0.052975122 0.036720864 -0.17558026
0001e0 94 30 26 3e a7 75 9d 3b 04 83 79 3e 0f dc 8c 3c
       0.16229469 0.004805285 0.24366385 0.017194776
0001f0 32 f7 77 bd 50 9b 98 3d 99 29 0f 3d 2a 74 76 3e
       -0.06053848 0.074514985 0.03495178 0.2406775
000200 89 3b 65 3e 50 bb 19 be 5d dd 97 3d dd 8d 4c be
       0.22385992 -0.1501286 0.074152686 -0.19975992
000210 1d 13 57 3e 78 28 3f be 0c ae 96 3d 55 55 59 3e
       0.21003385 -0.18667781 0.073574156 0.21223958
000220 60 7f c8 3d 36 17 6e bd 13 57 7d 3e e3 df 4d 3e
       0.0978992 -0.058127604 0.24740247 0.20104937
000230 e5 0f e1 bc 4d f5 d6 b9 fa 94 75 3d f9 a0 87 bd
       -0.0274734 -0.00041000024 0.05995653 -0.066225
000240 0d 0d 93 bc 85 16 78 be ee 02 67 be fe 13 72 3e
       -0.017950559 -0.2422734 -0.22559711 0.23640439
000250 c6 44 65 3e d6 5a 1d bd 75 69 4d 3d 0b a1 7e be
       0.22389516 -0.038416706 0.0501494 -0.2486612
000260 e2 fe 6a 3e f9 fc 19 3d 38 b4 75 3d 88 bd 20 bd
       0.22948793 0.03759477 0.059986323 -0.03924325
000270 d7 a3 24 be ac db b9 bd 86 72 d8 bc 49 81 89 bd
       -0.16078125 -0.09075102 -0.026421797 -0.06714112
000280 72 67 38 be 01 20 22 be 2a e1 8e bc 59 eb 38 bd
       -0.18008211 -0.15832521 -0.017441351 -0.04514632
000290 29 6c 66 be 72 76 5b bd dc 73 94 bd 7e 8e ea bd
       -0.22502197 -0.053579755 -0.07248661 -0.114529595
0002a0 7e c7 8b bc 67 15 10 3e 98 ad eb 3d 8b 79 28 3d
       -0.017062899 0.14070664 0.1150772 0.041131537
0002b0 73 48 64 be 0c b0 bd 3d b5 c2 4a bd 5f c1 f9 3d
       -0.22293262 0.09262094 -0.049502093 0.12195086
0002c0 2b b9 07 3e 3a 64 62 3e 4a 83 6d be 79 e9 ac 3d
       0.1325423 0.22108546 -0.23194614 0.08442969
0002d0 a7 a6 1d be ec 6f 1b be 17 0a c8 bc c2 cb 3f be
       -0.15395604 -0.15179414 -0.024418874 -0.18730071
0002e0 cc 87 32 be ff 15 1a be fd 4b 76 bd ee 57 3c be
       -0.17434615 -0.15047453 -0.06013106 -0.18392918
0002f0 db ae 9d be f9 09 48 3d 5f 41 24 bc 03 14 28 be
       -0.30797467 0.048837636 -0.010025351 -0.16413884
000300 dc d1 28 be 6e 7b 60 3e 49 49 3c be 20 50 b7 bd
       -0.16486305 0.21922085 -0.18387331 -0.089508295
000310 7e 0e 1a 3e 4c cd 6c 3d 67 06 24 be 11 79 00 be
       0.15044591 0.057812974 -0.16018067 -0.12546183
000320 dd 35 95 bd 8b 3c eb 3c e3 d3 8e bd 52 03 75 3d
       -0.07285664 0.028715393 -0.06974008 0.05981762
000330 16 2e 7a be 13 7f 3c be e5 14 f8 3d 19 4d bc bd
       -0.24431643 -0.1840785 0.1211336 -0.09194393
000340 72 53 78 be 9c 82 2e be 73 3f 8b bd ad 3c 15 bd
       -0.24250582 -0.17042011 -0.06799211 -0.036434818
000350 47 85 04 3e 50 b4 ff bd 07 60 24 3e f4 2b a8 3c
       0.12941466 -0.12485564 0.16052257 0.020528771
000360 e7 ba 18 be 66 82 b6 bd 77 ab 36 3e 99 3e 7f be
       -0.14915048 -0.0891159 0.17838846 -0.24926223
000370 74 ca 75 3d f3 d6 90 bd 95 05 b4 3d 1e e3 24 3d
       0.060007527 -0.07072248 0.08790127 0.04025566
000380 89 a3 e0 3d bc c2 10 be 08 7b 29 bd af 4c 9d bd
       0.10968692 -0.14136785 -0.041377097 -0.07680642
000390 75 d5 35 be 05 b8 25 bd 4b 75 c0 bb 9d 8a 89 3e
       -0.17757209 -0.040458698 -0.0058733574 0.26863566
0003a0 45 11 4e 3e 9f 9e 7a bd 21 7c 40 be 72 72 2f be
       0.20123775 -0.06118643 -0.18797351 -0.17133501
0003b0 a1 44 73 be fb ea 69 be d8 ce 39 be 6f 23 2a be
       -0.23756649 -0.22843544 -0.18145311 -0.1661508
0003c0 50 38 05 be 23 f0 fa 3c 77 f6 0e 3d 77 88 fc 3d
       -0.13009763 0.030632084 0.034903016 0.12330716
0003d0 cb 72 e5 3d b4 c6 a5 3c 51 c7 37 bd 4b c1 38 bd
       0.11203536 0.02023635 -0.044867817 -0.045106214
0003e0 e0 6f 81 be 28 e5 e0 bd b1 c8 f0 3d ab cb 45 be
       -0.25280666 -0.10981208 0.11757029 -0.19315974
0003f0 f0 23 ac bc 0a ae f8 3d 1a e6 a1 be 16 50 30 3e
       -0.02101323 0.1214257 -0.31620866 0.1721805

features.2.weight f4 [256]
000000 fb 97 78 3f 3b c1 8b 3f b2 de 75 3f 69 a4 83 3f
       0.97106904 1.0918344 0.9604293 1.0284549
000010 5a 07 81 3f 64 ea 74 3f ba 22 77 3f af 4e 74 3f
       1.0080369 0.9567015 0.96537364 0.9543256
000020 35 47 7f 3f 6d 12 8e 3f 02 a9 74 3f cb f9 74 3f
       0.9971803 1.1099373 0.95570385 0.95693654
000030 da 20 7e 3f c7 1e 74 3f d1 f0 72 3f ee 08 84 3f
       0.9926888 0.9535946 0.94898707 1.0315225
000040 bb b9 74 3f 90 27 77 3f c7 10 74 3f 4c c7 76 3f
       0.955959 0.9654474 0.953381 0.9639785
000050 1b 7d 76 3f 93 65 70 3f e4 85 7a 3f c5 51 74 3f
       0.96284646 0.9390499 0.9786055 0.9543727
000060 bd a4 8a 3f 4e e5 82 3f c5 35 77 3f 79 b8 77 3f
       1.0831524 1.0226228 0.9656642 0.9676586
000070 d1 73 7a 3f 0d de 72 3f ac a5 75 3f 06 59 a4 3f
       0.9783297 0.9487007 0.9595592 1.2839668
000080 8a 9f 74 3f ba 7d 73 3f b8 88 7b 3f 19 06 7c 3f
       0.9555594 0.9511372 0.9825549 0.98446804
000090 d7 39 77 3f 37 df 75 3f 0b 22 70 3f 18 91 77 3f
       0.9657263 0.96043724 0.93801945 0.9670577
0000a0 e1 2d 71 3f 60 e9 81 3f 00 22 91 3f 65 7f 78 3f
       0.9421063 1.0149345 1.1338501 0.9706939
0000b0 ea ef 8a 3f e4 62 92 3f b3 a5 78 3f 1c f2 72 3f
       1.0854466 1.1436429 0.97127837 0.9490068
0000c0 41 67 7a 3f 7e 5d 88 3f b6 82 8f 3f 00 a0 76 3f
       0.978138 1.0653532 1.1211765 0.9633789
0000d0 ce 26 82 3f 60 3e 7c 3f c8 7d 78 3f ca 04 9a 3f
       1.0168092 0.98532677 0.97066927 1.2032712
0000e0 21 c1 6e 3f d2 01 85 3f 76 6d 92 3f 06 44 80 3f
       0.9326344 1.039118 1.1439655 1.0020759
0000f0 25 73 71 3f 06 c8 7a 3f 5e 24 77 3f 6d c6 8a 3f
       0.9431632 0.9796146 0.96539867 1.0841805
000100 2c fc 72 3f 71 6e 88 3f 49 dd 85 3f 1d 22 a1 3f
       0.94916034 1.0658704 1.0458156 1.2588536
000110 77 3d 77 3f 89 ea 85 3f 34 a3 74 3f f4 55 a2 3f
       0.9657816 1.04622 0.9556153 1.2682481
000120 24 c7 72 3f 3c 94 76 3f 07 79 86 3f fd 1a 71 3f
       0.94835114 0.9631994 1.0505685 0.94181806
000130 0c e7 76 3f df ea 71 3f a8 dc 7a 3f bc 8c 80 3f
       0.964463 0.9449901 0.97992945 1.0042949
000140 ac 53 7b 3f c1 29 70 3f 4f fb a9 3f fc 82 72 3f
       0.9817455 0.9381371 1.3279818 0.94731116
000150 9e 8d 80 3f 6a c2 77 3f 07 bb 83 3f 64 90 8a 3f
       1.0043218 0.9678103 1.0291451 1.0825315
000160 38 3d 75 3f 9a d3 74 3f cb 2c 80 3f d6 c8 80 3f
       0.9579654 0.9563538 1.001367 1.006129
000170 5c 45 70 3f 52 1b 76 3f a0 af 75 3f 1d fc 74 3f
       0.93855834 0.9613544 0.9597111 0.95697194
000180 a1 f6 72 3f 33 44 88 3f 1f 84 71 3f 7b 5d 74 3f
       0.94907576 1.0645813 0.94342226 0.9545514
000190 04 98 7a 3f 5b 6b 9b 3f a7 80 75 3f bd f4 77 3f
       0.9788821 1.2142137 0.9589943 0.96857816
0001a0 78 9e 72 3f 86 e7 74 3f 3f 62 77 3f e0 20 74 3f
       0.94773054 0.95665777 0.96634287 0.95362663
0001b0 c3 cb 6f 3f 04 02 72 3f fc 01 75 3f 66 7e 81 3f
       0.9367029 0.94534326 0.9570615 1.0116699
0001c0 7b 01 75 3f 19 59 84 3f 0c c7 74 3f ce dc 72 3f
       0.95705384 1.033969 0.9561622 0.9486817
0001d0 80 a5 75 3f 11 b4 83 3f f5 60 73 3f f9 16 99 3f
       0.9595566 1.0289327 0.9506982 1.1960136
0001e0 78 2a 80 3f c5 71 8f 3f 02 d1 76 3f 5e 2e 83 3f
       1.001296 1.1206595 0.9641267 1.0248525
0001f0 0d fb 73 3f bb f8 9f 3f 5c d7 72 3f 81 c5 71 3f
       0.9530495 1.2497782 0.9485986 0.9444199
000200 2b 19 79 3f 32 c0 74 3f 02 ef 74 3f 1c bd 8b 3f
       0.9730403 0.95605767 0.95677197 1.0917087
000210 fc 8d 73 3f 0b 76 75 3f d0 a6 91 3f bd 96 86 3f
       0.95138526 0.95883244 1.1379032 1.0514752
000220 68 10 81 3f 13 5d 7f 3f 01 2b 7a 3f ab fc 73 3f
       1.0083132 0.99751395 0.9772187 0.95307416
000230 d4 16 81 3f b9 7a 83 3f 04 bb 76 3f 43 3d 78 3f
       1.0085092 1.0271827 0.96379113 0.9696848
000240 a1 8b 75 3f 3c aa 7b 3f 9a 15 7b 3f 75 d4 72 3f
       0.9591618 0.9830663 0.98079836 0.94855434
000250 53 60 96 3f 1f e7 74 3f 0e 57 8a 3f 40 c0 76 3f
       1.1748146 0.9566516 1.0807817 0.963871
000260 e8 88 76 3f 57 98 7a 3f ed a7 72 3f 9d 34 6f 3f
       0.9630265 0.978887 0.94787484 0.93439656
000270 35 86 7a 3f ed 45 74 3f d5 1b 74 3f a7 88 75 3f
       0.97861034 0.954192 0.9535497 0.9591164
000280 ce 83 77 3f 55 e2 6f 3f 8c 3a 76 3f c3 6e 76 3f
       0.96685493 0.9370473 0.96183085 0.9626276
000290 d2 4b 82 3f c4 d6 8b 3f e9 2a 76 3f 1f c6 70 3f
       1.0179389 1.0924916 0.96159226 0.9405231
0002a0 68 dd 7e 3f fc 0d 86 3f 6b 3a 6f 3f 6d ca 72 3f
       0.9955659 1.0473018 0.93448514 0.9484013
0002b0 3a fd 78 3f df e6 75 3f 44 5d 80 3f 07 e7 75 3f
       0.97261393 0.96055406 1.0028462 0.96055645
0002c0 5a 7a 80 3f 40 7c 84 3f 98 c5 73 3f 70 3e 72 3f
       1.0037339 1.0350418 0.9522338 0.9462652
0002d0 cf dd 87 3f 8a 3d 70 3f 14 75 71 3f c7 b7 9c 3f
       1.0614566 0.938439 0.9431927 1.2243584
0002e0 b7 40 80 3f 3b 9b 7c 3f 2e 51 82 3f 24 41 a4 3f
       1.0019749 0.9867436 1.0181024 1.2832379
0002f0 f4 7a 80 3f 58 3c 76 3f 05 e4 9a 3f 4a f9 76 3f
       1.0037522 0.9618583 1.2100836 0.96474135
000300 4f 5a 92 3f da 2b 80 3f b3 1e 78 3f 23 8c 74 3f
       1.143381 1.0013382 0.96921843 0.9552633
000310 b2 4d 7d 3f 71 dc 7c 3f ba 02 75 3f 16 09 98 3f
       0.9894668 0.98773867 0.95707285 1.1877773
000320 1c 6c 73 3f a4 2b 76 3f 26 80 7d 3f e8 d0 83 3f
       0.95086837 0.9616034 0.99023664 1.0298128
000330 73 1f 7b 3f 91 bd 74 3f 4e 12 7a 3f e2 13 77 3f
       0.9809486 0.95601755 0.9768418 0.96514714
000340 1a 88 74 3f be 81 91 3f 93 ed 9b 3f 43 5f 72 3f
       0.95520175 1.1367719 1.2181877 0.9467661
000350 55 97 72 3f 62 ad 80 3f 0a b6 8e 3f 68 cd 75 3f
       0.94762164 1.0052912 1.1149304 0.9601655
000360 58 0b 75 3f 17 43 7f 3f 71 b4 74 3f 55 0a 75 3f
       0.95720434 0.99711746 0.9558783 0.9571889
000370 52 ad 7a 3f 74 c4 76 3f 18 b1 80 3f 3d 3e 8d 3f
       0.97920716 0.96393514 1.0054045 1.1034619
000380 ef b7 8b 3f 68 75 8d 3f 97 1b 98 3f a4 dc 72 3f
       1.0915507 1.1051455 1.188342 0.9486792
000390 8e 15 74 3f 6d 1e 7f 3f c1 fa 7c 3f 8e 28 8e 3f
       0.9534539 0.996558 0.9882012 1.1106126
0003a0 50 3c a0 3f ee 7d 78 3f 59 5a 75 3f 89 4e 71 3f
       1.2518406 0.97067153 0.95840985 0.9426046
0003b0 f1 9a 97 3f a3 68 75 3f ec 1c 74 3f 60 89 77 3f
       1.1844159 0.9586279 0.9535663 0.9669399
0003c0 96 04 75 3f 2d 4f 72 3f f6 29 72 3f d1 41 72 3f
       0.9571012 0.9465206 0.9459528 0.9463168
0003d0 5c d2 83 3f aa 13 79 3f 48 25 81 3f f9 96 74 3f
       1.0298572 0.9729563 1.0089502 0.95542866
0003e0 2e 3d 77 3f df 14 79 3f 95 5c 78 3f ac 62 7c 3f
       0.9657773 0.9729747 0.9701627 0.9858806
0003f0 d4 dd 82 3f a7 f9 9b 3f 06 a9 78 3f 18 23 76 3f
       1.0223947 1.2185563 0.9713291 0.961473

features.2.bias f4 [256]
000000 c9 3f 3c bd 5a 3a 01 bc 5b b6 22 3d 1e 3b 94 bc
       -0.045959268 -0.007887447 0.03972469 -0.018094596
000010 8e 81 fe bc 31 ea 2f 3d a6 d8 09 3d 3b 37 3f 3d
       -0.031067636 0.04294795 0.033653878 0.04668353
000020 66 88 f4 bc 57 13 65 3b 02 72 3b 3d 53 dc 30 3d
       -0.029850196 0.0034954154 0.045763023 0.043178868
000030 4f c1 22 bd ed 06 3e 3d b5 9f 55 3d ab 78 d9 bc
       -0.039735135 0.046393324 0.05215426 -0.026546797
000040 b2 38 34 3d 6e 35 0a 3d c3 e3 51 bd 57 9d 11 3d
       0.04399938 0.03374236 -0.0512426 0.03555044
000050 fd e8 14 3d b1 b4 7a 3d 36 33 ff bc 8f fb 32 3d
       0.036355007 0.061207477 -0.031152349 0.043696936
000060 fb 6a 9b 3c 4c 34 5b 3c 63 15 0e 3d 6a ab 06 3d
       0.01897191 0.013379168 0.034688365 0.032878317
000070 3d 6e 1c bd f6 86 53 3d e4 4d 21 3d b5 44 30 bb
       -0.03819107 0.05164238 0.039380923 -0.0026896421
000080 1b 39 48 bd 36 cb 3f 3d 39 c3 15 bd 57 10 0c bd
       -0.048882585 0.046824656 -0.036563132 -0.03419527
000090 4e b3 31 bd 72 ad 1f 3d 71 70 7a 3d 55 ff 4f bd
       -0.04338389 0.03898377 0.06114239 -0.050780613
0000a0 fa e5 67 3d 22 c8 ec bc b1 82 45 bc c6 0b 2e bd
       0.056615807 -0.028904025 -0.012055085 -0.042491697
0000b0 98 7e f9 3b 07 51 38 3c d0 9e e9 3c 8d c5 54 3d
       0.007613968 0.011249787 0.02851811 0.05194621
0000c0 bd 76 20 bd 3c 39 85 bc 67 01 44 3a 74 e6 40 bd
       -0.039175738 -0.016262643 0.00074770156 -0.047094777
0000d0 d5 06 e1 3c 8d 9d 05 bd e4 41 1f bd 3e e8 62 bb
       0.027469078 -0.032620955 -0.038881198 -0.003462329
0000e0 5c cf 7e bd a2 b5 43 bc 56 06 a6 bc 2c e1 06 3d
       -0.062209472 -0.01194516 -0.020266693 0.032929584
0000f0 23 cb 6a 3d 35 6a 1c bd a2 a5 08 3d 73 02 52 3c
       0.057322633 -0.038187224 0.033361085 0.012817967
000100 a5 41 54 bd f3 c4 c1 3c 10 64 87 3c 04 ae c6 3a
       -0.051820416 0.023653483 0.016527206 0.0015158062
000110 11 70 07 3d a5 6c a2 3c e1 ad 30 3d de 21 64 3c
       0.03306586 0.019827196 0.043134574 0.01392409
000120 08 f0 53 3d 88 9b 4f bd 1d 3f 14 3c f1 f2 6a 3d
       0.051742584 -0.050685436 0.0090482505 0.057360593
000130 b7 0a 0c 3d 77 10 62 3d 2f 95 16 bd 66 26 d9 bc
       0.034189906 0.055191483 -0.036763366 -0.026507568
000140 03 2d 14 bd 26 cb 7a 3d 2d 58 81 bb 91 c3 55 3d
       -0.03617574 0.061228894 -0.003947279 0.05218846
000150 79 af ef bc da 57 04 3d 1e 8d a2 3c 03 dc d4 bc
       -0.029258477 0.032310344 0.01984268 -0.025983816
000160 2c b8 31 3d f4 9c 33 3d f9 89 9c 3c 00 d6 ea bc
       0.04338853 0.043850854 0.01910876 -0.028666496
000170 47 09 28 bd 87 af 5a bd c2 e0 32 bd 12 3c 2e 3d
       -0.041024473 -0.053390052 -0.043671377 0.042537756
000180 a3 67 4a 3d 3d 9c bf 3c bd 7d 6a 3d 89 e9 3d 3d
       0.049415242 0.02338993 0.05724882 0.046365295
000190 dd 7a 1f bd 49 14 e2 3a 4b c1 27 3d e6 c4 f8 3c
       -0.03893553 0.0017248477 0.040955823 0.030367326
0001a0 1e 72 56 3d fd f4 2c 3d 48 f4 07 3d ea de 3e 3d
       0.052354924 0.042225827 0.03319195 0.046599306
0001b0 54 d5 84 bd 8e f5 5c 3d 56 89 2d 3d 9a 6c bc 3c
       -0.064860016 0.053945117 0.042367302 0.023001004
0001c0 af 5e 38 bd e3 e3 ee 3c 3c d5 35 3d 31 47 50 3d
       -0.045012172 0.0291614 0.04439281 0.050849143
0001d0 20 7b 24 3d 30 bb f7 3c e9 0e 4d 3d 60 8c 37 3c
       0.040156484 0.030240625 0.050063048 0.011202902
0001e0 83 36 dc bc 45 df 66 3c a4 48 15 3d 7b 85 c0 3c
       -0.026881462 0.014091318 0.03644623 0.023501148
0001f0 e0 72 43 3d 3f 59 05 bc 9f 08 5f bd 81 39 5c 3d
       0.047716975 -0.008138954 -0.05445158 0.053765777
000200 57 f1 41 bd 4f bd 34 3d 89 18 34 3d 97 f6 26 3c
       -0.0473493 0.04412585 0.04396871 0.010190628
000210 29 a1 45 3d 84 c8 24 3d e5 ae 8b bc 94 86 2c bc
       0.048249397 0.04023029 -0.01705117 -0.010530133
000220 5c dc 9c 3c 41 6a 16 bd 88 7e bd 3c 35 d9 42 3d
       0.019148044 -0.036722425 0.023131624 0.047570426
000230 74 6b a2 3c 4d 2b b9 bc 4e e4 12 3d f3 1d fd 3c
       0.019826628 -0.022603655 0.03586226 0.03089807
000240 f0 80 54 bd 68 a4 03 bd 3a 44 a2 3c d6 d7 50 3d
       -0.051880777 -0.032139212 0.019807924 0.050987087
000250 65 41 c8 3b 69 ea 33 3d 8d a3 6b bc 66 3f 16 3d
       0.0061113113 0.043924723 -0.014382255 0.036681555
000260 49 94 35 bd 41 d0 e1 bc 65 46 54 3d 7c 43 84 3d
       -0.04433087 -0.027565124 0.051824946 0.06458184
000270 30 fb 22 bd 9a d1 48 bd e7 5f 6e bd 54 84 2d 3d
       -0.039790332 -0.049028017 -0.05819693 0.042362526
000280 3c dc 02 3d f7 d1 76 3d 25 4b 1c 3d a4 56 19 3d
       0.031948313 0.06025883 0.0381576 0.037436143
000290 1e d8 ea bc 31 9d 9d 3c 06 cc 19 3d 46 3e 73 3d
       -0.028667506 0.019239994 0.037548088 0.05938556
0002a0 72 ce f3 3c cd 70 77 bc 09 8f 85 3d e4 75 54 3d
       0.029761527 -0.015102577 0.065214224 0.05187024
0002b0 0f b8 32 bd 62 4f 1d 3d eb af ca 3c ee 7e 27 3d
       -0.043632563 0.038405783 0.024742087 0.040892534
0002c0 49 41 07 3d 21 a8 a6 3c 47 5a 46 3d 10 85 61 3d
       0.033021245 0.020343842 0.04842594 0.05505854
0002d0 91 dd 89 3c eb 96 83 bd d3 b2 66 bd f8 73 2e 3b
       0.016829284 -0.0642527 -0.056322884 0.0026619416
0002e0 f5 c7 05 bd 7b f5 0d bd d5 cc b4 bc 85 a2 01 bc
       -0.032661397 -0.034657937 -0.022070328 -0.007912283
0002f0 20 6a e5 bc bc 30 2f bd b4 c1 87 bc f2 77 0f 3d
       -0.028004706 -0.042771086 -0.016571857 0.0350265
000300 7a cc cc 3a 94 70 b7 bc 0a 9d f4 3c 72 9c 5a bd
       0.0015624904 -0.022392549 0.029860038 -0.053371854
000310 09 01 2b 3d e6 85 1a bd 2f 99 31 3d 47 f7 b8 3b
       0.041749034 -0.03772535 0.043358978 0.005644712
000320 31 16 48 3d 80 71 0b bd f8 d6 09 3d 6d f7 ac 3c
       0.04884929 -0.03404379 0.033652276 0.021114076
000330 79 d3 2f bd b3 74 33 3d 47 68 25 bd 3a 6f 2d bd
       -0.042926285 0.043812465 -0.04038265 -0.042342402
000340 90 7a 37 3d fc 5d 26 3c d6 3a 08 bc a3 8d 5f bd
       0.04479462 0.010154244 -0.008314809 -0.054578435
000350 b0 f5 55 3d 60 29 f1 3c 96 d3 30 3c 46 de 23 3d
       0.05223626 0.029438674 0.0107926335 0.0400069
000360 d3 76 2d 3d 58 fb eb bc 47 3b 37 3d 35 62 49 bd
       0.042349648 -0.028806373 0.044734266 -0.049165923
000370 01 0b 19 bd 0a a5 25 bd 1a 32 cc 3c 7b 32 58 bc
       -0.03736401 -0.040440597 0.024926234 -0.013195629
000380 5a f5 53 bc 24 31 6d 3c 54 f9 c3 3b 81 f5 51 3d
       -0.012936914 0.014477048 0.00598065 0.05125952
000390 02 dd 3d 3d 0c a1 04 3d 9a 1c 06 bd 4b d7 37 3c
       0.046353348 0.03238015 -0.03274212 0.011220763
0003a0 df ff a2 bb 3f da 19 bd b7 ea 55 bd 12 e5 69 3d
       -0.00497435 -0.03756165 -0.052225795 0.057103224
0003b0 e1 5b 4f bc 63 ce 28 3d 6e 56 41 3d ce e8 01 3d
       -0.012656183 0.04121245 0.047201566 0.03171616
0003c0 17 7a 33 3d a4 73 5b bd 55 36 5e 3d 97 44 56 3d
       0.043817606 -0.05357708 0.054251034 0.052311506
0003d0 c6 ad 05 bd f2 15 21 bd 90 20 bd 3c ae 71 36 bd
       -0.032636426 -0.03932757 0.023086816 -0.044542007
0003e0 8a b5 13 3d 82 bd df 3c c7 05 2d bd b5 92 00 bd
       0.0360618 0.027312044 -0.042241838 -0.03138991
0003f0 b5 bd 09 bd 8f 2f 8b bc 58 48 2d bd dc 89 20 3d
       -0.033628184 -0.016990451 -0.04230532 0.039193973

features.4.weight f4 [128, 256]
000000 68 81 25 bd 54 7c b0 bc 79 46 e7 3c 44 b3 28 bc
       -0.040406615 -0.02154366 0.028231846 -0.0102966465
000010 cf 4f f6 3c 42 bd 28 3c ac 3a 29 bd 3e b5 40 3d
       0.030067353 0.010299029 -0.04131572 0.047047846
000020 fe c7 75 3b 52 57 78 3d 84 df e7 bc c5 ca 4a bc
       0.0037503238 0.06063015 -0.028304823 -0.012377446
000030 12 d1 09 3d 22 b2 56 3d 57 d4 36 3d a9 0c 36 3d
       0.03364665 0.052415974 0.044636097 0.044445667
000040 21 1e e9 bc aa 10 36 bd 12 2d 8d 3d 00 5b 17 bd
       -0.02845675 -0.044449486 0.06893362 -0.03695202
000050 0a 41 17 bd 26 ce c1 3c a0 99 33 3d ea 3d 2a bd
       -0.03692726 0.02365787 0.04384768 -0.041562952
000060 4a 13 18 bd e7 bd 62 3d c2 f6 7c bd bb bd 78 bd
       -0.03712777 0.055356886 -0.061758764 -0.060727816
000070 eb 33 d2 bc 1d 3a 0f bd 89 88 0c bc 5c 42 7d be
       -0.025659522 -0.03496753 -0.008577474 -0.24732345
000080 54 aa bb bc 1a 7e 8a 3c b2 6b 5b bd d1 30 2e bd
       -0.022908367 0.016905833 -0.053569503 -0.042527024
000090 46 49 28 3d 7c 31 47 bd d9 bf a0 bc ef 9b 69 3d
       0.041085504 -0.048631176 -0.01962273 0.057033475
0000a0 14 48 2d bd 62 ac ac 3c cb 28 00 be 1a 22 a9 ba
       -0.042305067 0.021078292 -0.12515561 -0.001290384
0000b0 05 30 a5 bd a3 ba 35 3e 9f 14 1f bd a9 c5 c9 3c
       -0.080657996 0.17746978 -0.038838025 0.024630385
0000c0 7d 28 0d bc 66 cd 94 3d cd 30 26 3e cd d5 c1 bc
       -0.00861561 0.07265739 0.16229554 -0.023661518
0000d0 c9 1a 92 bd d3 ca 7a bb 8a ca 11 3d a6 09 1b 3e
       -0.07134015 -0.0038267865 0.035593547 0.151404
0000e0 99 f9 ce 3c 17 97 96 3c 30 e1 cd 3d 13 ed 87 bc
       0.025265502 0.018382592 0.10052717 -0.016592538
0000f0 a5 79 7d bc 02 65 11 3d 12 5e 39 3c 25 51 c7 bc
       -0.015470897 0.03549672 0.011313932 -0.024330685
000100 96 9b 84 bc fa cb c7 3b c4 16 b1 3d 2f cc 7a be
       -0.01618747 0.006097314 0.0864692 -0.24491952
000110 64 6d 0e bd de d0 35 bd 8d fb 14 bd 8c 84 0d be
       -0.03477229 -0.044388644 -0.03637271 -0.13820094
000120 d1 9b c4 3b c4 4b 1b bd da 23 11 bd de 21 6b bc
       0.00600002 -0.037914053 -0.03543458 -0.014351336
000130 63 70 6d bd 39 7e 77 bd 41 11 4a bd 88 e0 84 3d
       -0.05796851 -0.06042311 -0.04933286 0.064881384
000140 c7 5a 71 bd ad 14 df 3c 20 58 a3 3e 64 98 e9 3c
       -0.058924463 0.027231539 0.31903172 0.028515048
000150 d5 93 4d bd 7f dc 0c 3d aa b5 8f bd f7 1e 28 3d
       -0.05018981 0.03438997 -0.070170715 0.041045155
000160 7b b8 d1 bc bf cf 4d bc 87 ce e4 3b 02 56 df 3c
       -0.025600662 -0.012561738 0.006982628 0.027262691
000170 e7 d5 44 3a a8 8e 05 3d 5b e4 84 bb f0 3d 06 3d
       0.00075086806 0.03260675 -0.0040555424 0.032773912
000180 fa 34 31 3d 30 ed 70 3d c8 dd e8 3b 25 03 21 bd
       0.043263413 0.05881995 0.0071065165 -0.03930964
000190 47 4c 49 bd ef 93 cf bc 38 dc 71 3b d4 71 3a bb
       -0.04914501 -0.025339095 0.0036904942 -0.0028449195
0001a0 c2 6c 9d 3b d7 8e 16 3c 51 ea 4d 3d fb 43 54 bd
       0.0048042247 0.009189329 0.05027229 -0.051822644
0001b0 ce 95 8d 3c 17 6d 83 bd ba e8 69 bb 08 9a ab ba
       0.017283347 -0.064172916 -0.0035691694 -0.001309217
0001c0 93 57 be bc dd 9e 4f bd ee eb 04 bd c4 3c 46 bc
       -0.023235118 -0.050688613 -0.032451563 -0.012099449
0001d0 4d 40 8d 3c 01 8d c8 bc 40 03 0c 3d 47 bf 8a 3d
       0.017242575 -0.024481298 0.034182787 0.067747645
0001e0 a8 93 18 bc a2 5c d2 bd 45 1c 12 bd 7f 28 02 3d
       -0.009312548 -0.102715746 -0.03567149 0.0317769
0001f0 1a b2 26 bd 33 9a 49 be 63 b5 d2 3b 37 ca 3e 3c
       -0.040697195 -0.19687729 0.0064303144 0.011644891
000200 d9 8d 98 bc 13 b8 2c 3d dc 52 0e bd 0f b1 64 3d
       -0.018622326 0.042167734 -0.03474699 0.05583292
000210 b5 79 cc 3c 50 2f 43 3d 18 1f fe bd bc bd ed bb
       0.024960378 0.047652543 -0.124082744 -0.007255284
000220 30 67 84 bc 80 c1 bf b9 91 2a 5a bd 99 7a 4c 3d
       -0.016162485 -0.00036574528 -0.05326325 0.049921606
000230 1e e4 47 bb d3 e9 80 bd a8 7b 81 bd a9 f7 72 bd
       -0.0030500959 -0.062945984 -0.06322414 -0.05931822
000240 a7 bd b1 3c bc cb e7 3c 2b 43 7e bd 42 ed aa bb
       0.021696879 0.02829539 -0.062075775 -0.0052162716
000250 4f 46 1c 3c 8d 5c 9d ba 2a 37 c1 bd e3 c0 93 3c
       0.009538247 -0.0012005732 -0.0943435 0.018036311
000260 62 8d 5e bd d3 b5 e4 bc 37 f6 00 3d cc 75 44 bc
       -0.054334052 -0.027918732 0.03148481 -0.011990976
000270 89 c7 61 3a 98 8b b9 bc 40 25 3b 3d 56 bc 86 3c
       0.0008612802 -0.022649571 0.04568982 0.016447227
000280 9a 77 08 3d 24 ea 7d 3c 39 90 70 bd 43 2f 18 bd
       0.033317186 0.015497718 -0.05873129 -0.037154447
000290 29 2f a1 bc 44 fe bb bd 50 13 d2 3c 04 c7 19 bd
       -0.019675808 -0.09179357 0.025643975 -0.03754331
0002a0 ec 78 5c 3d f8 4c 7f 3d dd 40 37 3b cf 8b 11 3d
       0.053826258 0.062329262 0.0027962246 0.035533722
0002b0 a7 50 83 3d 21 7a 14 bd e3 61 3a 3d 38 d9 db bb
       0.064118676 -0.036249284 0.04550351 -0.006709244
0002c0 cd 82 f5 3c 8b 6a 06 3d 55 f8 1e 3d 52 78 49 bd
       0.029969597 0.03281645 0.038811047 -0.049187012
0002d0 94 95 c2 3d 85 5c 03 bd a1 7f e9 3c e9 42 e7 bd
       0.09501186 -0.032070655 0.028503241 -0.11292059
0002e0 a6 02 00 bd 78 f1 9e bc c8 1d b0 3d 7d 9c 96 be
       -0.031252526 -0.01940225 0.0859943 -0.29416266
0002f0 42 7a 16 bc 63 55 53 bd ae 7e c0 bd bd d9 2f bc
       -0.009184422 -0.051595103 -0.09399162 -0.010733065
000300 7f 64 86 bc e6 b2 a6 bb 72 31 4f 3d 43 51 59 3d
       -0.016405342 -0.0050872443 0.050584264 0.053056013
000310 5f 1f 40 bc e6 a0 58 bc 2a 78 b0 3c 7d e8 8b bd
       -0.011726229 -0.013221955 0.021541674 -0.06831453
000320 5d 56 8d 3c c3 62 e2 3b 8a 9a eb bc f1 3a 7b bd
       0.017253095 0.006908746 -0.028760213 -0.061335508
000330 b8 5d 9d bc 70 04 66 bd a9 90 0d 3d 4c 8e b1 3b
       -0.019209728 -0.056156576 0.034561787 0.0054185744
000340 93 7f 4a bd a2 e7 6a 3d df a5 6c 3d 18 be 54 3d
       -0.04943807 0.05734981 0.057775375 0.0519391
000350 99 af 07 bd d0 f9 6b 3d 38 71 30 3e a1 33 1e 3c
       -0.033126447 0.057611287 0.1723069 0.009655864
000360 6a cf 85 3c a5 48 23 3c f8 6f 66 bd 7e b4 8f 3c
       0.016334254 0.00996605 -0.056259125 0.01754212
000370 10 bb 66 3c 50 5f 5f 3d cc 38 61 bd 1a 8f 07 3e
       0.014082685 0.054534256 -0.054985806 0.13238183
000380 09 b5 8f 3d f0 d5 09 be 27 56 93 3d b9 84 73 bd
       0.070169516 -0.13460517 0.07194167 -0.059452746
000390 6c 4a 49 bd 79 f4 28 3d e3 cf 3e bd 31 e7 ac 3d
       -0.04914324 0.041248772 -0.046584975 0.08442534
0003a0 48 2f 37 3e 04 06 62 3c ba 21 08 bd 39 87 22 3d
       0.1788913 0.01379538 -0.03323529 0.03967974
0003b0 6c 53 00 be 8d ff 3a 3d 35 5a ba 3c a2 4e bc bc
       -0.12531823 0.04565387 0.022748092 -0.022986714
0003c0 32 25 57 bd dc 2b a8 bb b2 1b 63 3d f5 e1 27 bd
       -0.052525707 -0.0051321816 0.055446334 -0.040986974
0003d0 a5 ad b3 bb 00 22 39 bd 78 1e 6d bc cc 44 16 3d
       -0.0054833465 -0.04519844 -0.014472596 0.036686704
0003e0 fc ef bb 3c d9 af 9d 3c a2 06 1c 3d b5 3b b5 3b
       0.022941582 0.01924889 0.038092263 0.0055307993
0003f0 af 90 21 3d 0d 4f f8 bc d2 eb 80 3b e6 29 53 bd
       0.03944462 -0.030311132 0.003934362 -0.05155363

features.4.bias f4 [128]
000000 dd fa c4 3c ab 9e 5e 3d 7c 69 43 3c f3 18 83 bd
       0.024045402 0.054350536 0.011927005 -0.06401243
000010 82 32 14 3d b3 69 61 3c 15 0c 14 bc f5 73 20 bd
       0.03618098 0.013758111 -0.009036084 -0.039173085
000020 5d 70 73 3d 80 ca 7a 3b 15 0f ff bc 3e 08 5f bd
       0.05943333 0.0038267672 -0.031135121 -0.05445122
000030 ef 65 9d 3c 9c 15 5a bd 6f 9e 5f 3d 00 3f 1a 3c
       0.019213645 -0.053243265 0.054594453 0.009414434
000040 e4 9d b2 bc d0 3e 88 bb 3a 2d c5 bc 4d a8 b0 3c
       -0.021803804 -0.0041578785 -0.024069417 0.021564627
000050 46 98 a5 3b ae 75 38 3d 12 81 82 3c 39 4e 61 3c
       0.005053553 0.045034103 0.015930686 0.01375156
000060 4b 60 65 3d 93 e5 1c bd 40 54 82 bc a5 a5 01 bc
       0.056000035 -0.038304877 -0.015909314 -0.007913028
000070 bf 26 b2 3c a9 90 2c 3d 32 ae c1 bc 15 70 1a bb
       0.021746991 0.042130146 -0.023642633 -0.0023565341
000080 22 b9 da 3b 37 40 3c 3d 9f 15 16 bd 8e 91 09 bd
       0.0066749016 0.045959678 -0.036641713 -0.033586077
000090 7e 2c 6f bc b0 06 4f bd 15 83 30 3d 82 34 ea 3b
       -0.01459801 -0.050543487 0.04309376 0.0071473727
0000a0 75 6a 69 bd 2c 7b 1e bd 02 53 29 3d 5d 66 cf bc
       -0.05698629 -0.038691685 0.041338928 -0.025317365
0000b0 4e bc 8c 3c 25 7c e5 bc 78 79 a7 bc c3 b2 98 bc
       0.017179634 -0.028013298 -0.020443663 -0.018639928
0000c0 65 0a 6b bd fa 7e 74 bd 9a 9e be 3c 66 0b cb ba
       -0.05738296 -0.059691407 0.023268986 -0.0015491068
0000d0 9d 78 4c bb af 38 a4 b9 95 64 26 bc 3b 25 20 3b
       -0.003119982 -0.0003132275 -0.010155817 0.0024436254
0000e0 54 53 76 3b 36 e0 40 3d a0 8b 36 3d 3a cd fe 3b
       0.0037586289 0.047088824 0.04456675 0.0077759298
0000f0 58 db a8 bc 1e 1c 61 3c 19 07 55 3b 01 b2 22 bd
       -0.020612404 0.013739614 0.0032505451 -0.03972054
000100 ce cc 30 bd 95 20 ab 3b c9 18 6e bd 75 80 21 3d
       -0.043164067 0.00522239 -0.058129106 0.039429147
000110 6b 7a be bb a3 26 66 bd 37 ab 49 bd f6 e6 21 3d
       -0.005812933 -0.05618919 -0.04923555 0.039526902
000120 95 d4 05 3c 54 a9 09 bd ae c3 d5 bc 8b dc d7 3c
       0.008168359 -0.03360875 -0.026094284 0.02635028
000130 7f c5 84 3d d5 67 3e bd ef 85 6e bd d7 88 04 bc
       0.06482982 -0.04648574 -0.058233198 -0.008089266
000140 f2 4f 2a 3d 43 4c d2 bc 52 8d 2a bd f2 e2 e9 3c
       0.041580148 -0.02567113 -0.04163868 0.028550599
000150 81 27 de 3c 0c 97 0f 3d bc 48 44 3b 56 5c 40 3a
       0.027118446 0.03505616 0.002995058 0.0007337978
000160 bf 29 e7 3c e5 a7 73 3d e2 b7 3f 3d 0d d5 32 3c
       0.028218148 0.05948629 0.046806224 0.010915053
000170 f5 a1 c5 bb 16 9e 03 bd 8b dc a3 3c 9a 4f b6 bb
       -0.0060312697 -0.032133184 0.020002624 -0.0055636885
000180 77 10 4a 3c ec d6 a7 bc 0e 3e bb 3b 19 7a 8c 3c
       0.012333027 -0.020488225 0.0057141846 0.017148064
000190 86 b2 f3 bc ab f6 51 3d d7 ac 98 bc a5 0b 5b 3d
       -0.029748213 0.05126063 -0.018637104 0.053477902
0001a0 15 9d 58 bd 74 f3 a0 bb ed f7 24 3d f7 8a 48 bd
       -0.05288418 -0.0049118344 0.040275503 -0.048960652
0001b0 5b b9 fe bc 44 f3 7a bd d7 2f 12 bd 42 02 52 bd
       -0.031094244 -0.061267152 -0.035690155 -0.051271684
0001c0 f6 26 73 bc 00 a2 0d 3a fe 70 c3 bc f1 42 37 bd
       -0.014840832 0.0005402863 -0.02385759 -0.044741575
0001d0 a9 b6 ba bc 58 89 ad bc d9 ae 1e bd 85 d8 1d 3c
       -0.022792177 -0.021183655 -0.038740966 0.009634142
0001e0 79 65 39 3d b3 4b e5 bb 87 36 8e 3b de 7a 46 b9
       0.045262787 -0.0069975494 0.0043399963 -0.00018928523
0001f0 bd c4 e2 3c cf d2 65 bd f5 f0 c6 3c 18 b7 56 bc
       0.027681703 -0.056109246 0.02428482 -0.013105176

features.6.weight f4 [128]
000000 90 4c 83 3f 25 68 78 3f 03 0a 7c 3f d3 e1 77 3f
       1.025774 0.9703391 0.98452777 0.96828955
000010 01 ba 7f 3f 83 61 78 3f 32 38 7b 3f 5e 30 7f 3f
       0.99893194 0.9702379 0.9813262 0.9968318
000020 c0 9a 7a 3f 2d f0 7b 3f b5 25 81 3f 43 f8 72 3f
       0.9789238 0.98413354 1.0089632 0.9491007
000030 58 b5 7d 3f ec 47 7b 3f a0 16 80 3f 6b 8a 7d 3f
       0.99104834 0.9815662 1.0006905 0.99039334
000040 4c 12 7e 3f 4b 4f 81 3f d8 33 7a 3f 10 7e 7f 3f
       0.9924667 1.0102323 0.9773536 0.9980173
000050 76 0e 83 3f cd cc 7c 3f c2 a4 87 3f 96 e1 86 3f
       1.0238788 0.9875 1.0597155 1.0537593
000060 67 5b 77 3f bd cf 78 3f 2d 75 7f 3f a8 f0 7c 3f
       0.96623844 0.97191983 0.9978817 0.9880471
000070 02 e8 7a 3f 25 80 7e 3f ab d3 81 3f 71 46 81 3f
       0.98010266 0.99414283 1.0142721 1.0099622
000080 b1 90 79 3f c6 60 7e 3f 35 2e 72 3f d8 a9 78 3f
       0.97486407 0.99366415 0.94601756 0.9713416
000090 9b 49 79 3f 68 40 79 3f ea 94 7f 3f f7 d6 7e 3f
       0.9737794 0.973639 0.998366 0.9954676
0000a0 8a ac 81 3f b3 51 7d 3f c6 88 7d 3f d0 c6 74 3f
       1.013078 0.9895279 0.99036825 0.95615864
0000b0 4f e7 73 3f 5f 4c 7e 3f c7 eb 7b 3f a8 1c 78 3f
       0.95274824 0.99335283 0.9840664 0.96918726
0000c0 7b 59 7c 3f df bf 7d 3f c4 22 76 3f 53 a8 7b 3f
       0.98574036 0.991209 0.961468 0.9830372
0000d0 67 e9 70 3f 70 7c 84 3f 9d 7f 7f 3f 99 44 81 3f
       0.94106144 1.0350475 0.998041 1.0099059
0000e0 b4 c2 78 3f e4 6a 7c 3f 22 cb 75 3f 1f e2 7e 3f
       0.97172093 0.986006 0.9601308 0.99563783
0000f0 e6 91 79 3f 48 48 76 3f 10 24 7e 3f 4a f0 7b 3f
       0.9748825 0.9620404 0.99273777 0.98413527
000100 37 2f 79 3f 26 63 7f 3f f4 39 79 3f d6 dc 80 3f
       0.9733767 0.99760664 0.97354054 1.0067394
000110 39 1a 82 3f bc bf 7e 3f b1 05 7f 3f 8a 40 7a 3f
       1.0164253 0.99511313 0.9961806 0.9775473
000120 0c 6e 71 3f af a8 83 3f c5 2e 84 3f 24 90 7e 3f
       0.94308543 1.0285853 1.0326773 0.9943869
000130 52 10 83 3f c7 c5 7a 3f ac dc 83 3f 96 3e 7f 3f
       1.0239356 0.97958034 1.0301719 0.99704874
000140 7a 62 74 3f 9d 90 77 3f 21 24 78 3f 4d e5 79 3f
       0.95462763 0.9670504 0.9693013 0.9761551
000150 ea 2b 7b 3f 9c 97 75 3f e9 0b 7c 3f 56 58 70 3f
       0.9811388 0.9593446 0.98455673 0.9388479
000160 27 60 7d 3f a8 a6 7b 3f 6c 04 79 3f 38 33 7e 3f
       0.9897484 0.9830117 0.9727237 0.99296904
000170 a6 35 79 3f b3 41 79 3f 0d 59 80 3f 1e 40 7d 3f
       0.97347486 0.97365874 1.0027176 0.9892596
000180 98 e0 75 3f 79 e9 80 3f 27 9d 78 3f fb 76 7c 3f
       0.9604583 1.007125 0.97114795 0.9861905
000190 52 06 74 3f 16 f2 79 3f 6c cd 82 3f a0 3a 76 3f
       0.95322144 0.9763502 1.021894 0.96183205
0001a0 6f 52 82 3f 56 58 72 3f af 45 7a 3f 5e c4 7d 3f
       1.0181407 0.9466604 0.9776258 0.9912776
0001b0 55 18 7c 3f 55 b6 7c 3f d6 1e 83 3f bf bc 86 3f
       0.9847463 0.98715717 1.0243785 1.0526351
0001c0 4e ed 7a 3f 67 ae 7c 3f c3 e7 80 3f bc 66 81 3f
       0.9801835 0.98703617 1.0070728 1.0109477
0001d0 fa 8d 80 3f 18 dd 7f 3f 86 15 7d 3f 25 7a 78 3f
       1.0043328 0.9994674 0.9886097 0.9706138
0001e0 d1 2d 7b 3f 5f 47 7f 3f 38 2d 7b 3f 5a 87 76 3f
       0.98116785 0.9971828 0.98115873 0.9630028
0001f0 f4 a1 77 3f 6f f6 73 3f 5a 15 7b 3f 5e db 7c 3f
       0.96731496 0.952979 0.98079455 0.9877223

features.6.bias f4 [128]
000000 62 2a d3 ba b5 56 f9 3c 70 26 1a 3c 6c 22 74 bc
       -0.0016110654 0.030436853 0.009408578 -0.014900785
000010 af 66 9c 3b f9 51 e3 bc 5a 1d 29 3c 7b c4 71 3b
       0.004772983 -0.027749049 0.010321939 0.0036890793
000020 90 90 dc bc ed ce 36 3c 68 b7 8d 3b 76 8d 5d bd
       -0.026924402 0.011157733 0.0043248422 -0.054089986
000030 0e d3 02 bb 8c ee 82 3c 25 99 f3 bc 5d ed 49 3c
       -0.0019962224 0.015982889 -0.029736111 0.012324658
000040 0f 9b 90 bc 2b 5d 24 bc 4d 3d b5 3c 89 42 fa ba
       -0.017652063 -0.010031979 0.022123957 -0.0019093315
000050 3d da 57 bb c0 55 3f bc 87 bd f2 3a 02 6b 99 bb
       -0.0032936477 -0.011678159 0.0018519618 -0.004681946
000060 d5 c3 42 bd 1c 82 c6 3c 6e a6 ee b9 4f fb db 3b
       -0.04755004 0.024231963 -0.00045518897 0.006713308
000070 79 61 97 3c e5 06 86 3b 8e cd e1 3b ea 13 b1 3c
       0.018479096 0.0040901774 0.006890959 0.021615941
000080 17 f6 df 3c 18 5f 8a 3c 5c 75 f0 bc b1 84 fa 3c
       0.027339024 0.016891047 -0.029352836 0.03058085
000090 db 5b b2 3c 36 1e 8c 3c 97 30 a7 3b 26 7a be 3b
       0.021772316 0.01710425 0.005102228 0.005812901
0000a0 43 da 88 bc 6c b5 17 3c 9a 3f 68 3c 1b 72 81 3c
       -0.016705638 0.009259563 0.01417532 0.01580148
0000b0 de b9 31 3d 77 b1 e8 3b 0b 2e 20 bc a8 b9 b4 3c
       0.043390147 0.0071012336 -0.0097766025 0.022061184
0000c0 38 2f 25 3c 7e f1 2d 3c 20 14 19 3d ae 59 4f 3c
       0.010082059 0.010616658 0.03737271 0.012655659
0000d0 4c a9 6f 3d aa 76 48 3b 21 75 65 3b c3 95 01 bd
       0.058511063 0.0030588307 0.0035012441 -0.031636965
0000e0 3d e1 01 3d fd 0c 37 3c 21 33 af bc 36 2c 7f 3a
       0.031708945 0.01117253 -0.021386685 0.0009734066
0000f0 7a 5e d0 3c 67 81 44 3d cb da 04 3c 3a f8 ec bc
       0.025435675 0.04797497 0.008108805 -0.028926957
000100 2a 4b 2f bd 0b 5e d9 ba 26 fc 51 bb f6 47 da bb
       -0.04279629 -0.0016583813 -0.0032041161 -0.0066614104
000110 03 a8 d8 ba 9e bf 5a 3c 83 96 8c 3a d3 2c d7 3b
       -0.0016529564 0.013351349 0.0010726008 0.0065666228
000120 5e 65 10 3d 50 a8 48 3b 36 a1 db ba e1 04 ff 3b
       0.03525292 0.00306179 -0.0016756419 0.007782564
000130 a4 f5 bc 3b 37 e5 9c 3c c0 d6 2f 3c 69 d2 b9 3a
       0.0057665873 0.019152267 0.010732353 0.0014177087
000140 da 53 b2 bc d1 5a f2 3c cc 40 08 3d 91 34 b2 3c
       -0.0217685 0.02958432 0.03326492 0.021753581
000150 7a 89 44 bd 12 de 7a bc 31 15 76 3c ae ae b4 3b
       -0.04798267 -0.015311735 0.015019701 0.0055139875
000160 3a f5 8f 3b df fe 19 bd 5a 5e 25 3c 70 72 e0 bc
       0.004393247 -0.03759658 0.010093296 -0.027398318
000170 48 68 cc 3c be 04 4b bd 3a 2e 2c bd 0b b7 0b 3c
       0.024952069 -0.04956507 -0.042036273 0.008527528
000180 3d 5a c7 3c df 94 0a bc a5 45 a6 3c 00 e2 78 3c
       0.024335021 -0.008458345 0.020296881 0.015190601
000190 6f 14 93 bc 8a 95 86 3c 02 e1 03 3c 28 9c a3 3c
       -0.01795408 0.016428728 0.0080492515 0.019971922
0001a0 72 9c 88 3b 1f fe 15 3d 3e e8 bd 3c 33 6f af 3a
       0.0041690404 0.036619302 0.02318203 0.001338458
0001b0 57 9f a4 3c e5 0b 3e 3c 20 b7 7c 3c 41 64 16 3b
       0.02009551 0.011599516 0.01542452 0.002294794
0001c0 d1 d7 b0 3c 41 18 6a 3c 93 51 b2 bb 16 24 8c bc
       0.021587284 0.014288009 -0.0054418533 -0.01710705
0001d0 d2 6b 22 bb 17 66 6a 3b 2b e9 55 3c 41 5e 2f bc
       -0.0024783504 0.0035766417 0.01305608 -0.010703624
0001e0 b3 7a d4 3b 7a ed 9a 3b d5 09 a4 3c 07 f4 87 3b
       0.0064843534 0.0047280164 0.02002422 0.0041489634
0001f0 aa 25 ef 3c be 72 3c 3d 78 ad 8a 3c 3a 70 25 3b
       0.029192764 0.046007864 0.01692842 0.0025243894
