NULB/NublModel.pth (torch, 224462 bytes, 15 tensors)

features.0.weight f4 [256, 15]
0.10686566 -0.30223528 -0.11558121 0.19040293 -0.21128961 -0.1501419 0.016751548 0.13356487
-0.09172937 -0.15540269 -0.29367602 -0.30211747 0.3440082 -0.13317706 -0.06451593 -0.12231692
0.11253818 -0.1757381 -0.20642368 -0.06419309 0.112530105 -0.02440985 0.08995997 0.041062426
0.1447839 0.13771911 0.103583544 -0.39740226 0.25115365 -0.09840444 -0.31007808 -0.19149157
-0.30691472 0.10465825 0.12793928 -0.20190322 -0.03564566 0.12241736 -0.07534116 -0.25774512
0.24583727 0.063718565 -0.4631698 0.18402955 0.11446906 -0.23963392 -0.049147617 -0.11185989
-0.111906916 0.0055373614 0.001543633 0.07030122 -0.073584855 -0.042770956 0.25807354 0.22135296
-0.16386679 -0.09473729 0.05948446 0.17981134 -0.22672008 -0.19665416 -0.07272989 -0.098093756
-0.132974 0.08153861 0.044025507 -0.21720362 -0.092970654 0.15170382 0.20050202 -0.12185516
0.19776146 0.21624091 -0.14289823 0.0104418 -0.079422414 -0.21559654 0.13834167 -0.009468731
-0.18901332 0.003370778 -0.1280083 -0.018465606 0.2078071 -0.008418649 -0.19533211 -0.14685373
0.24215977 -0.03230096 -0.24536051 -0.08728953 0.04091416 -0.0356146 0.04043369 0.14841342
0.17580695 0.037908494 0.07630452 0.06537981 0.090423904 0.25767908 -0.4717981 0.3773033
-0.025750978 -0.0026433903 -0.089358546 0.3517396 -0.16804752 0.22694996 -0.015553611 -0.11875309
0.1018291 -0.01521279 -0.15991658 0.013734469 0.21138388 -0.17804416 0.4546238 -0.27650183
0.14584477 -0.18627046 -0.0014122766 -0.28081736 0.002647045 0.039438687 -0.20500222 0.17988566
0.14487037 -0.29095706 0.21504326 0.20201467 -0.30649605 0.22591081 -0.14554591 0.045732506
0.07910898 0.51413256 0.26557732 -0.30396932 0.22308348 0.25338218 0.032611948 0.097475365
0.31321207 -0.028856538 -0.031567167 0.64497095 -0.7635046 -0.051770993 0.17512779 -0.10143692
-0.3119748 -0.271724 0.3665304 0.11332851 -0.009575426 0.078263246 0.013185503 -0.3625562
-0.3150635 -0.20313229 -0.67154115 0.64306885 0.23591322 0.12354274 0.21926533 0.47054434
-0.030243471 -0.43660158 0.21562783 -0.018391013 0.058011018 -0.27328768 0.07166612 0.11454729
-0.046905525 0.529069 -0.32342738 -0.18388684 0.05411852 -0.12265182 -0.6243244 -0.33234996
0.23032801 -0.23556714 -0.03755547 0.040465433 -0.0109819705 0.1515174 -0.14375979 -0.2057272
-0.11480401 0.18432862 0.2868109 -0.15411103 0.22330488 -0.25387663 0.2237569 -0.039016787
-0.02612917 -0.1959039 -0.2188522 -0.07090115 -0.18892843 0.18758138 0.10480641 0.04023366
0.11124324 -0.0092101805 -0.17569342 0.104364716 0.12894721 -0.017844442 0.082208745 0.020393
0.21025124 -0.17711702 0.061275408 -0.15419805 0.074855626 0.16838749 -0.025532536 0.017740099
-0.08158897 -0.21643302 0.075999215 -0.14558995 0.07274223 -0.17446448 0.09310513 0.19870806
-0.22643536 0.16046713 0.25155437 0.12684846 0.23016495 -0.12770738 -0.039438497 0.11746536
-0.1765377 -0.2044186 0.10168397 0.09242933 0.1313925 -0.1665315 -0.027022988 0.058572553
0.12712967 -0.33020034 0.28426427 0.1765249 -0.42301995 0.5297783 0.24921225 -0.062671885
00000000: 62dc da3d 95be 9abe d7b5 ecbd fcf8 423e
00000010: 4e5c 58be ccbe 19be 8b3a 893c 3bc5 083e
00000020: 9cdc bbbd e221 1fbe b45c 96be 24af 9abe
00000030: d821 b03e 915f 08be ee20 84bd 4b81 fabd
00000040: 6b7a e63d b0f4 33be bb60 53be ab77 83bd
00000050: 2f76 e63d 2af7 c7bc ef3c b83d 1331 283d
00000060: 3b42 143e 3d06 0d3e 9c23 d43d 4f78 cbbe
00000070: 3697 803e 4488 c9bd 8ec2 9ebe 5e16 44be
00000080: ed23 9dbe 1157 d63d 8402 033e b8bf 4ebe
00000090: 2f01 12bd f4b5 fa3d 774c 9abd 2bf7 83be
000000a0: c4bc 7b3e e17e 823d 9824 edbe 3e72 3c3e
000000b0: c16e ea3d 9862 75be 034f 49bd cc16 e5bd
000000c0: 742f e5bd c172 b53b bb53 ca3a 16fa 8f3d
000000d0: a8b3 96bd 9930 2fbd 3722 843e 5aaa 623e
000000e0: b2cc 27be a005 c2bd faa5 733d 7720 383e
000000f0: 4f29 68be b55f 49be 69f3 94bd 61e5 c8bd
00000100: 562a 08be b7fd a63d 1754 343d a06a 5ebe
00000110: 6667 bebd 3f58 1b3e 6750 4d3e 338f f9bd
00000120: fb81 4a3e 426e 5d3e ea53 12be 1514 2b3c
00000130: 38a8 a2bd 57c5 5cbe 70a9 0d3e bc22 1bbc
00000140: b58c 41be 45e8 5c3b 9c14 03be 2f45 97bc
00000150: 62cb 543e 60ee 09bc 2405 48be d360 16be
00000160: bbf8 773e 034e 04bd c93f 7bbe dac4 b2bd
00000170: 9b95 273d 9de0 11bd cc9d 253d b0f9 173e
00000180: bd06 343e f045 1b3d 8b45 9c3d dae5 853d
00000190: 2b30 b93d 83ee 833e 858f f1be e62d c13e
000001a0: b7f3 d2bc bb3c 2dbb 9d01 b7bd 3617 b43e
000001b0: a614 2cbe 9265 683e 93d4 7ebc d234 f3bd
000001c0: c68b d03d 113f 79bc 2cc1 23be 8a06 613c
000001d0: 0475 583e 3551 36be 73c4 e83e a691 8dbe
000001e0: 5558 153e afbd 3ebe 241c b9ba 4bc7 8fbe
000001f0: 0c7a 2d3b 768a 213d 1aec 51be f233 383e
00000200: e658 143e 53f8 94be 4d34 5c3e efdc 4e3e
00000210: 0ded 9cbe 2a55 673e fd09 15be 0252 3b3d
00000220: e403 a23d 319e 033f c0f9 873e dea1 9bbe
00000230: ff6f 643e 4fbb 813e 1b94 053d 2aa1 c73d
00000240: 555d a03e 8c64 ecbc 934c 01bd d11c 253f
00000250: 0a75 43bf d20d 54bd b354 333e 29be cfbd
00000260: 29bb 9fbe 681f 8bbe dfa9 bb3e c718 e83d
00000270: 3fe2 1cbc 7b48 a03d 0208 583c f7a0 b9be
00000280: 0150 a1be e901 50be 1fea 2bbf 29a0 243f
00000290: 3c93 713e fa03 fd3d 1787 603e 30eb f03e
000002a0: 28c1 f7bc 3e8a dfbe 8bcd 5c3e c0a8 96bc
000002b0: f69c 6d3d 5dec 8bbe b0c5 923d c597 ea3d
000002c0: 0220 40bd 1171 073f 4698 a5be d54c 3cbe
000002d0: 62ab 5d3d e130 fbbd b9d3 1fbf c629 aabe
000002e0: 1bdb 6b3e 8338 71be c4d3 19bd 15bf 253d
000002f0: b9ed 33bc 6127 1b3e c435 13be 27aa 52be
00000300: 5d1e ebbd a4c0 3c3e e1d8 923e 48cf 1dbe
00000310: 09aa 643e 1efc 81be 8720 653e 11d0 1fbd
00000320: d70c d6bc 089b 48be cb1a 60be 9f34 91bd
00000330: 7476 41be 5515 403e bea4 d63d 0dcc 243d
00000340: 7fd3 e33d 4ce6 16bc fae8 33be 2bbd d53d
00000350: bd0a 043e 822e 92bc 0f5d a83d 390f a73c
00000360: 1a4c 573e 2a5e 35be ecfb 7a3d 18e6 1dbe
00000370: e84d 993d c56d 2c3e 9c29 d1bc af53 913c
00000380: 1e18 a7bd 9ea0 5dbe 7aa5 9b3d 8815 15be
00000390: e1f9 943d d1a6 32be e7ad be3d 207a 4b3e
000003a0: acde 67be 7f51 243e bccb 803e 90e4 013e
000003b0: 5cb0 6b3e b9c5 02be 438a 21bd ae91 f03d
000003c0: 4dc6 34be 1c53 51be af3f d03d 974b bd3d
000003d0: c18b 063e 3c87 2abe 505f ddbc c6e9 6f3d
000003e0: 482e 023e 0510 a9be 168b 913e f2c2 343e
000003f0: 1296 d8be 8d9f 073f 7f31 7f3e 1e5a 80bd

features.0.bias f4 [256]
-0.062809154 0.27429438 0.27230948 0.19439422 -0.2264353 -0.105617605 0.2594497 -0.06900909
0.21352042 -0.07009911 0.37187567 -0.32028526 -0.011468518 -0.24147257 0.08125276 -0.039463367
0.32456887 0.23978218 0.019433517 0.047079377 0.20820689 0.18663666 0.12652755 -0.005226507
-0.25250706 -0.1668791 -0.16421826 -0.061092503 0.10514298 -0.054797143 0.14125276 -0.098339126
0.20550317 -0.23873857 0.090775274 0.26413706 -0.19799674 -0.10411716 0.0013744986 -0.14690953
0.2402346 0.1316415 -0.083930016 -0.060509764 -0.074724816 -0.0016134722 -0.09063444 0.17930727
-0.18973882 -0.1229268 -0.016154697 -0.20182198 0.31584138 -0.053453915 -0.35673735 0.36443126
-0.09610166 0.23320666 -0.2582062 -0.13375604 0.025255619 -0.15328398 0.17629378 0.16407277
-0.18011995 -0.18970272 0.16867784 -0.07931561 -0.02664094 -0.4034368 -0.31134543 0.1492639
0.05072407 -0.04285452 -0.19949105 -0.410768 -0.42356944 0.02326336 0.13979295 -0.21418114
-0.14430591 0.25056854 -0.15063964 -0.12762564 0.24146716 -0.22007509 -0.23141365 -0.20287824
0.21829832 0.33121705 -0.25316212 -0.121550106 -0.113740616 0.36538213 0.40671366 -0.32967663
0.08836081 0.09319671 0.13575263 0.07589121 0.086752556 -0.2759326 -0.4721843 0.0763993
0.10901191 -0.33583197 0.0676898 -0.030093657 0.23142953 0.10289703 0.31218666 0.23022749
-0.053198535 -0.03311591 -0.22898743 -0.38031706 -0.3218863 -0.24697314 -0.044304032 0.3522758
-0.11728265 0.11317664 0.061899375 -0.09155833 -0.29462576 -0.27479738 -0.11386068 0.20986424
-0.10899438 -0.36478615 -0.2739601 -0.109345 0.0055352966 0.15773839 0.18657805 -0.14116004
-0.1542597 -0.037668373 -0.3639201 0.07426816 -0.17378671 -0.17633063 -0.2635531 0.10352748
-0.28072473 -0.39838305 -0.21901087 0.06910285 0.13494703 0.102234915 0.19839785 0.0704352
0.07828603 0.30568814 0.07873954 0.22115068 0.094614476 -0.11943485 0.11663668 -0.1965271
-0.11065932 -0.35605752 -0.06143057 0.31092927 -0.17404363 0.0045644585 0.22839133 -0.13674863
-0.051102955 -0.217677 0.019538492 0.17216414 0.21907656 -0.03619041 -0.2999549 0.08736327
0.19278283 0.30580345 -0.13848653 0.2579049 0.26030567 -0.025739037 -0.08515071 0.23804356
0.1552242 -0.014286554 0.014283969 0.14055812 -0.17115259 0.06963838 0.44893578 -0.13140927
-0.021660617 -0.014907723 -0.14563274 0.07924466 0.18673259 0.04494899 -0.14707828 -0.080113165
0.018101668 -0.19761956 -0.013899745 0.11927582 0.031190831 -0.22221181 0.07019701 -0.14207728
-0.08231797 -0.18903202 0.34708282 -0.14501458 0.0475182 -0.036660396 -0.25326002 -0.03534828
-0.09208463 0.18838617 0.09850319 0.16752431 0.22822534 -0.2718873 0.009611374 -0.047322534
-0.10981688 -0.21030724 -0.20060147 0.1543501 -0.41872728 0.11316248 0.02606761 0.23969631
-0.19654703 0.09849229 -0.17344342 0.24602468 -0.22075377 -0.23909818 -0.0707534 -0.08734439
-0.04545519 -0.09471102 0.12683831 -0.17290503 0.010867268 0.16745389 0.020443512 0.011742889
-0.07573525 -0.12878518 -0.04847179 -0.24144965 -0.15352613 0.21946284 -0.18698311 -0.1304929
00000000: 16a2 80bd 5070 8c3e 266c 8b3e 470f 473e
00000010: a8de 67be 0b4e d8bd 97d6 843e a354 8dbd
00000020: 19a5 5a3e 1f90 8fbd 7d66 be3e 6efc a3be
00000030: 73e6 3bbc 9644 77be d967 a63d 57a4 21bd
00000040: e42d a63e 7689 753e 0a33 9f3c 4ed6 403d
00000050: 3034 553e ae1d 3f3e 7090 013e 1e43 abbb
00000060: 9b48 81be 5be2 2abe d528 28be 223c 7abd
00000070: 3455 d73d f872 60bd 90a4 103e 0666 c9bd
00000080: 6c6f 523e e277 74be 63e8 b93d f93c 873e
00000090: a8bf 4abe 613b d5bd 8528 b43a 746f 16be
000000a0: 0f00 763e 08cd 063e 80e3 abbd 16d9 77bd
000000b0: 5309 99bd 257b d3ba 8d9e b9bd 539c 373e
000000c0: e54a 42be 0cc1 fbbd db56 84bc 6caa 4ebe
000000d0: f6b5 a13e 7ef2 5abd 47a6 b6be bc96 ba3e
000000e0: f2d0 c4bd bacd 6e3e 9a33 84be 58f7 08be
000000f0: dfe4 ce3c 7af6 1cbe 5b86 343e b102 283e
00000100: 5d71 38be 6e41 42be e2b9 2c3e 3970 a2bd
00000110: 1a3e dabc 458f cebe ab68 9fbe a3d8 183e
00000120: 0bc4 4f3d 3988 2fbd 6247 4cbe 2f50 d2be
00000130: 18de d8be cd92 be3c e225 0f3e 4d52 5bbe
00000140: eec4 13be 854a 803e 4741 1abe 4cb0 02be
00000150: 2b43 773e 5d5b 61be b3f7 6cbe 50bf 4fbe
00000160: 9889 5f3e 4895 a93e 779e 81be 43ef f8bd
00000170: d7f0 e8bd 5e13 bb3e c63c d03e 60cb a8be
00000180: 83f6 b43d ebdd be3d bd02 0b3e da6c 9b3d
00000190: 53ab b13d 0a47 8dbe 24c2 f1be 3c77 9c3d
000001a0: a341 df3d 2bf2 abbe f3a0 8a3d f986 f6bc
000001b0: ddfb 6c3e aebb d23d eed6 9f3e c1c0 6b3e
000001c0: b5e6 59bd 8ca4 07bd ae7b 6abe ebb8 c2be
000001d0: 48ce a4be 87e6 7cbe 2578 35bd 7e5d b43e
000001e0: e331 f0bd 27c9 e73d 338a 7d3d ef82 bbbd
000001f0: 30d9 96be 3eb2 8cbe ca2f e9bd a7e6 563e
00000200: 7238 dfbd 40c5 babe 8044 8cbe 45f0 dfbd
00000210: 6f61 b53b 2c86 213e 510e 3f3e 428c 10be
00000220: 41f6 1dbe 274a 1abd bc53 babe e819 983d
00000230: 25f5 31be 0490 34be 6ff0 86be 3706 d43d
00000240: 27bb 8fbe ddf8 cbbe 6344 60be cc85 8d3d
00000250: 8e2f 0a3e 8a60 d13d ce28 4b3e 5540 903d
00000260: 6d54 a03d 2883 9c3e 3242 a13d 5375 623e
00000270: 3cc5 c13d 429a f4bd 36df ee3d 663e 49be
00000280: 5ba1 e2bd 2c4d b6be 9f9e 7bbd 1f32 9f3e
00000290: 7e38 32be 7491 953b 6bdf 693e d507 0cbe
000002a0: 5551 51bd b8e6 5ebe 300f a03c cc4b 303e
000002b0: 9b55 603e 653c 14bd b093 99be 84eb b23d
000002c0: dd68 453e 4592 9c3e 6acf 0dbe 1c0c 843e
000002d0: c946 853e acda d2bc 7f63 aebd b1c1 733e
000002e0: 18f3 1e3e 2712 6abc 4f07 6a3c 78ee 0f3e
000002f0: a042 2fbe 919e 8e3d e9da e53e 2790 06be
00000300: 9b71 b1bc 863f 74bc c020 15be 064b a23d
00000310: d436 3f3e 6f1c 383d b09b 16be 5f12 a4bd
00000320: f349 943c c85c 4abe c2bb 63bc e246 f43d
00000330: ea83 ff3c 7e8b 63be 73c3 8f3d b57c 11be
00000340: 5396 a8bd 9c91 41be d7b4 b13e b47e 14be
00000350: 72a2 423d 3629 16bd 4cab 81be 5cc9 10bd
00000360: de96 bcbd 4ee8 403e 0abc c93d 7e8b 2b3e
00000370: e7b3 693e d034 8bbe 0679 1d3c 46d5 41bd
00000380: ace7 e0bd c85a 57be 796a 4dbe f40d 1e3e
00000390: 6c63 d6be bbc1 e73d be8b d53c f372 753e
000003a0: a043 49be 53b6 c93d 279b 31be e5ed 7b3e
000003b0: 470d 62be 27d6 74be 29e7 90bd 9ee1 b2bd
000003c0: 392f 3abd daf7 c1bd e7e1 013e 040e 31be
000003d0: a00c 323c 0879 2b3e 2779 a73c 3f65 403c
000003e0: 151b 9bbd 43e0 03be 5b8a 46bd 943e 77be
000003f0: f435 1dbe deba 603e 8078 3fbe ee9f 05be

features.2.weight f4 [256]
0.9646696 0.94816524 0.9552257 0.9463238 0.9306088 0.95592034 1.0801339 0.96646947
0.9334449 1.1611222 1.1516875 1.0440993 1.152712 0.93184805 0.933827 0.944201
1.0639353 0.94742644 1.153607 0.9492662 0.95507354 0.9407594 0.9543323 1.225153
0.9496161 0.935284 0.9597001 0.97994745 0.9398437 0.95186156 0.9285749 0.95792204
0.9381042 1.1121792 1.0205477 1.1542505 0.95503145 1.0719161 0.9563468 0.9561525
1.1621314 0.9524669 1.1162918 0.9464202 0.96297395 0.97252 0.9504871 0.95719975
0.9418054 0.95507634 0.9546332 1.0089266 1.1298394 0.93490535 0.981867 1.3059094
0.9333012 0.9407322 1.0432702 0.9563203 0.94503814 0.9367435 0.96449244 0.9546178
0.9228347 0.9372845 0.9271543 0.9512445 1.0240879 1.012284 0.9626466 0.96198595
0.9354637 0.9528188 0.9510032 0.94101244 1.0158125 1.2065605 1.1887757 1.1794485
0.9507152 0.95754325 0.95010436 0.94865936 0.94605035 0.93014765 0.9675048 1.0373734
0.9683236 1.0622858 1.1232573 0.9760209 0.94178766 1.2275716 1.0418917 1.1474181
0.94921196 0.96717346 0.9545006 0.9524656 0.9477595 1.0064445 1.1944857 0.9673406
0.9436869 1.1429957 1.2202828 0.93713826 0.94638556 0.9334 1.2456177 0.9574796
0.9522209 1.0118029 1.4270253 0.9583692 1.1433855 0.953911 0.9221892 1.1558437
0.95457655 0.9633033 0.93262285 0.9354478 1.1676041 0.93503135 1.0337365 1.0409794
1.1056955 1.0591633 0.94675505 1.0082247 0.94886136 0.963233 0.94125587 0.95302147
0.94037944 0.9687931 1.268516 0.96397406 0.9413548 0.9597466 0.9483718 0.94249463
0.92077005 0.9443243 0.9538726 1.0034662 0.9406393 0.9477098 0.97279435 1.0192
0.961328 1.1487386 0.95412177 0.94183964 0.9381145 0.94658625 0.9542832 0.9659589
1.1930864 0.9277508 0.94629467 0.9460174 0.95441383 1.0805826 0.9489653 0.9475434
0.9416873 0.92884946 0.9788128 1.0037795 0.95793957 0.9597538 0.9410469 0.9254309
0.9575451 0.9547287 0.9551942 0.9390122 1.0926294 0.95815635 0.9546366 0.96301365
0.9556518 0.9389471 0.9473902 1.0899605 0.9646286 0.9404618 1.1873583 0.9652295
1.0596689 0.9867149 1.0747615 0.9508307 0.94293934 0.9563772 0.93574274 0.96315426
0.95043564 0.96696854 0.9456438 0.95840096 0.9637084 0.93221056 1.2061211 0.9636222
1.0209415 0.9529127 0.93374366 0.9465342 0.94516283 1.0239762 0.9532159 0.9638755
0.94236267 0.9466572 0.9624449 1.2190645 0.95067865 1.2535706 0.948812 0.948463
0.94802946 0.95912045 0.92769945 1.1533188 1.0282775 1.1373272 0.9408635 0.92526025
0.9595186 0.9423825 0.96500885 0.9543488 0.9483121 0.9464058 0.9554683 0.93371874
0.9578366 1.1121907 0.9365059 0.9778327 0.9334599 0.9579569 0.9381936 0.950731
0.9296957 0.9576523 0.94533604 0.9405508 0.9271739 0.96007425 0.9593207 0.9538324
00000000: 96f4 763f f5ba 723f ac89 743f 4742 723f
00000010: 613c 6e3f 32b7 743f d441 8a3f 8b6a 773f
00000020: 3ff6 6e3f a79f 943f 7f6a 933f 0ca5 853f
00000030: 118c 933f 988d 6e3f 490f 6f3f 28b7 713f
00000040: 082f 883f 8a8a 723f 65a9 933f 1c03 733f
00000050: b37f 743f 9cd5 703f 1f4f 743f d0d1 9c3f
00000060: 0a1a 733f c66e 6f3f e8ae 753f d6dd 7a3f
00000070: 9999 703f 33ad 733f 16b7 6d3f 613a 753f
00000080: 9927 703f e35b 8e3f 4fa1 823f 7bbe 933f
00000090: f17c 743f 8c34 893f 25d3 743f 69c6 743f
000000a0: b9c0 943f dfd4 733f a6e2 8e3f 9848 723f
000000b0: 7685 763f 12f7 783f 1f53 733f 0b0b 753f
000000c0: 291a 713f e27f 743f d762 743f 8224 813f
000000d0: 949e 903f f555 6f3f a35b 7b3f 0a28 a73f
000000e0: d4ec 6e3f d3d3 703f e189 853f 68d1 743f
000000f0: 05ee 713f 6cce 6f3f fae8 763f d561 743f
00000100: e53e 6c3f e1f1 6f3f fc59 6d3f c284 733f
00000110: 5015 833f 8692 813f 0270 763f b644 763f
00000120: 8d7a 6f3f efeb 733f f274 733f 31e6 703f
00000130: 2506 823f 9370 9a3f cd29 983f 2bf8 963f
00000140: 1262 733f 8e21 753f 0a3a 733f 57db 723f
00000150: 5b30 723f 281e 6e3f 65ae 773f a7c8 843f
00000160: 0ee4 773f fbf8 873f e5c6 8f3f 81dc 793f
00000170: ff18 713f 1121 9d3f b55c 853f 99de 923f
00000180: 8eff 723f ae98 773f 275a 743f c9d4 733f
00000190: 5ea0 723f 2cd3 803f e8e4 983f a2a3 773f
000001a0: 7795 713f af4d 923f 3a32 9c3f 4be8 6f3f
000001b0: 5346 723f 4df3 6e3f 6770 9f3f 621d 753f
000001c0: c0c4 733f c282 813f c4a8 b63f af57 753f
000001d0: 755a 923f 8333 743f 9714 6c3f b0f2 933f
000001e0: 215f 743f 0c9b 763f 5fc0 6e3f 8279 6f3f
000001f0: 0d74 953f 375e 6f3f 7a51 843f d03e 853f
00000200: 6e87 8d3f aa92 873f 8a5e 723f 820d 813f
00000210: 94e8 723f 7096 763f 25f6 703f 37f9 733f
00000220: b5bc 703f d302 783f bb5e a23f 01c7 763f
00000230: a1fc 703f f4b1 753f 7fc8 723f 5447 713f
00000240: 96b7 6b3f 3dbf 713f ff30 743f 9571 803f
00000250: bdcd 703f 1c9d 723f 0d09 793f 2575 823f
00000260: 9819 763f de09 933f 5341 743f 671c 713f
00000270: 4628 703f 7a53 723f e74b 743f 1549 773f
00000280: 0eb7 983f 1481 6d3f 5e40 723f 322e 723f
00000290: 7754 743f 8850 8a3f 64ef 723f 3492 723f
000002a0: 6b12 713f 14c9 6d3f 7a93 7a3f d97b 803f
000002b0: 873b 753f 6db2 753f 73e8 703f 0ae9 6c3f
000002c0: ad21 753f 1a69 743f 9b87 743f 1b63 703f
000002d0: 48db 8b3f bc49 753f 1063 743f 1088 763f
000002e0: 99a5 743f d65e 703f 2a88 723f d383 8b3f
000002f0: e6f1 763f 1bc2 703f 5bfb 973f 4819 773f
00000300: 3ba3 873f 5999 7c3f c991 893f a469 733f
00000310: 7964 713f 23d5 743f d68c 6f3f 4791 763f
00000320: c04f 733f 408b 773f b615 723f c459 753f
00000330: 98b5 763f 5aa5 6e3f 2d62 9a3f f2af 763f
00000340: 36ae 823f 16f2 733f d309 6f3f 1150 723f
00000350: 31f6 713f a711 833f f505 743f 8bc0 763f
00000360: ae3e 713f 2058 723f ca62 763f 4e0a 9c3f
00000370: ad5f 733f 0075 a03f 58e5 723f 79ce 723f
00000380: 0fb2 723f eb88 753f b67d 6d3f f39f 933f
00000390: 999e 833f f093 913f 6edc 703f dbdd 6c3f
000003a0: 03a3 753f fb3f 713f d20a 773f 3450 743f
000003b0: 95c4 723f a747 723f 9299 743f 3108 6f3f
000003c0: c834 753f 445c 8e3f dabe 6f3f 3e53 7a3f
000003d0: 3af7 6e3f aa3c 753f 752d 703f 1b63 733f
000003e0: 8a00 6e3f b328 753f 8b01 723f f0c7 703f
000003f0: 455b 6d3f 6dc7 753f 0b96 753f 5c2e 743f

features.2.bias f4 [256]
-0.05005537 -0.056741294 -0.055970576 0.05461376 0.068612486 0.04484721 -0.015513391 -0.05087532
-0.075782366 0.018620156 -0.016149478 -0.027776713 0.013809174 0.067623444 0.06733052 0.05546616
-0.035589434 0.053096708 0.023956167 0.04931012 0.04555218 0.05984144 -0.05432173 -0.01675943
0.051425867 0.0635689 0.04009797 -0.042450707 0.059615653 0.046349913 0.07119175 0.042681463
0.06299041 0.0058929743 0.03787773 -0.012515714 0.04548603 -0.019588077 0.044434518 0.04523421
0.013239828 0.046433914 -0.025269186 0.05268494 0.0383199 0.027232753 0.04937673 0.043108527
0.058744412 0.04457387 0.044288803 -0.042731516 -0.013039014 0.06513284 -0.035172127 -0.014981955
0.06557335 0.05857425 -0.025983708 0.04222476 -0.059781153 -0.074507006 -0.036816824 0.043866664
-0.07801879 0.062870994 0.07278559 0.04952009 -0.03064155 -0.0496965 -0.056307986 0.036963556
-0.06744323 0.046986014 0.04812568 -0.07469781 -0.048195798 -0.011192319 -0.020644635 -2.1713397e-05
0.04793133 0.044208013 0.05024066 -0.06745031 0.0540175 0.07070087 0.034006275 -0.026731517
0.03268843 0.029587463 0.018243067 0.02463143 0.057250462 0.0042107664 0.024094997 0.0024511088
0.050809763 -0.05273021 0.0469419 0.04754358 -0.053883407 -0.028854277 -0.012378668 0.031278264
-0.05584604 -0.008884126 0.011472811 0.062015515 -0.054515146 -0.07242234 -0.003993452 0.042337593
0.047858838 -0.043732997 -0.0031559654 -0.05799765 -0.025427157 -0.06450129 0.076923884 -0.035142247
-0.051435728 0.035686336 0.068143554 0.062776886 0.01847984 -0.06656829 -0.032661263 0.030482909
0.036549363 -0.03045789 -0.071678475 0.028362935 -0.057289448 0.03745286 -0.062860325 0.047457766
0.060677256 -0.050890204 -0.010723683 -0.06460139 0.058094125 -0.05747068 -0.059326634 0.057647124
-0.08628662 -0.06616385 0.047523577 -0.041050453 0.05794194 0.052466065 -0.04160533 -0.035864662
0.039355483 0.010433429 0.044183258 0.057113003 0.062470645 -0.06532453 0.044569146 0.034389824
0.011915332 -0.08781802 0.05219819 -0.059092972 -0.06368831 0.028846793 0.051841434 0.052494563
-0.07264369 0.07012503 0.052881107 -0.036422804 0.041728992 0.04113804 -0.07245597 -0.0730129
0.04264642 -0.048145592 -0.053163398 0.061996542 -0.045293506 0.042088885 -0.06315971 0.035335794
0.043225538 0.059475847 0.052339274 -0.03268314 0.03691135 0.059537284 -0.012554616 0.033308424
0.014695265 -0.046025764 0.013058988 0.048625346 0.05711086 0.042874932 -0.075874895 -0.057538122
0.047573604 0.034564476 0.055158194 0.04180239 0.03707467 0.068936065 -3.8756512e-05 -0.047332942
-0.036650572 0.046475973 -0.071667045 0.051904734 0.0536401 -0.032811467 0.047601998 -0.066163026
0.058543127 0.052625973 0.036146417 -0.00942239 0.04741617 0.002554082 -0.06020521 0.053344898
-0.05853606 0.042357333 0.07230576 -0.025011811 0.016078688 0.017575629 0.058339357 0.0743368
-0.047914945 0.05747339 0.036083862 0.046629164 0.05183571 0.05426084 0.04532021 -0.0667154
0.04234544 -0.02043788 0.062054034 -0.040748093 0.067554094 0.04325424 0.06131294 0.04936043
0.070118055 0.04199054 0.05520808 0.059649147 -0.072663836 0.040158264 0.039926007 0.047509972
00000000: dc06 4dbd 8f69 68bd 6741 65bd aeb2 5f3d
00000010: b484 8c3d b5b1 373d e12b 7ebc a462 50bd
00000020: c933 9bbd 4c89 983c e94b 84bc fd8b e3bc
00000030: e03f 623c 297e 8a3d 95e4 893d 7c30 633d
00000040: 3ac6 11bd ef7b 593d b93f c43c 69f9 493d
00000050: ec94 3a3d 4c1c 753d 7680 5ebd 124b 89bc
00000060: eea3 523d 6930 823d c53d 243d cbe0 2dbd
00000070: 8b2f 743d 68d9 3d3d fbcc 913d c2d2 2e3d
00000080: 1e01 813d da19 c13b ae25 1b3d b60e 4dbc
00000090: 8f4f 3a3d 2d77 a0bc f800 363d 8247 393d
000000a0: ddeb 583c 7d31 3e3d 5301 cfbc 2acc 573d
000000b0: 54f5 1c3d 3917 df3c 413f 4a3d 9192 303d
000000c0: fb9d 703d 1793 363d 2d68 353d 3e07 2fbd
000000d0: 97a1 55bc 5e64 853d a610 10bd e076 75bc
000000e0: 524b 863d 8eeb 6f3d c9db d4bc dff3 2c3d
000000f0: 15dd 74bd 2197 98bd 3dcd 16bd 88ad 333d
00000100: 51c8 9fbd 82c2 803d 9d10 953d 94d5 4a3d
00000110: fd03 fbbc 8f8e 4bbd 34a3 66bd 1967 173d
00000120: ad1f 8abd 6874 403d 6f1f 453d 2afb 98bd
00000130: f568 45bd fd5f 37bc f01e a9bc 2a25 b6b7
00000140: a453 443d 7613 353d 26c9 4d3d 6323 8abd
00000150: 7441 5d3d 9ecb 903d 2a4a 0b3d 0efc dabc
00000160: 4ee4 053d 6861 f23c 7c72 953c dac7 c93c
00000170: 767f 6a3d 78fa 893b df62 c53c c8a2 203b
00000180: e61d 503d a2fb 57bd 2646 403d 0fbd 423d
00000190: d9b4 5cbd ce5f ecbc e6cf 4abc a31d 003d
000001a0: d1be 64bd ba8e 11bc 75f8 3b3c fb03 7e3d
000001b0: 464b 5fbd 2a52 94bd 81db 82bb 2f6a 2d3d
000001c0: a107 443d 5f21 33bd 50d4 4ebb f28e 6dbd
000001d0: 9d4c d0bc 4119 84bd 458a 9d3d 51f1 0fbd
000001e0: 45ae 52bd d62b 123d d98e 8b3d 2b91 803d
000001f0: 0963 973c f554 88bd d1c7 05bd 4bb7 f93c
00000200: c9b4 153d d382 f9bc 2acc 92bd 6359 e83c
00000210: 57a8 6abd 2c68 193d eabc 80bd 1363 423d
00000220: b788 783d 3f72 50bd 63b2 2fbc bc4d 84bd
00000230: 1bf4 6d3d 6066 6bbd 7c00 73bd 641f 6c3d
00000240: 0ab7 b0bd ea80 87bd 15a8 423d 8524 28bd
00000250: 8754 6d3d a8e6 563d 5a6a 2abd d3e6 12bd
00000260: 3733 213d f9f0 2a3c 81f9 343d 53ef 693d
00000270: 38e1 7f3d dec8 85bd 238e 363d 58dc 0c3d
00000280: 8638 433c efd9 b3bd c5cd 553d 790b 72bd
00000290: 046f 82bd 1c50 ec3c af57 543d 8a04 573d
000002a0: 37c6 94bd b69d 8f3d dc99 583d 1430 15bd
000002b0: 05ec 2a3d 5d80 283d cc63 94bd ca87 95bd
000002c0: 03ae 2e3d 5034 45bd ddc1 59bd 16f0 7d3d
000002d0: af85 39bd 6565 2c3d e159 81bd 44bc 103d
000002e0: 430d 313d f29c 733d b561 563d c2de 05bd
000002f0: 5b30 173d 5edd 733d e0b1 4dbc 6a6e 083d
00000300: 69c4 703c 8385 3cbd 5ef5 553c 5f2b 473d
00000310: 14ed 693d a09d 2f3d 4c64 9bbd 18ad 6bbd
00000320: 8adc 423d 7b93 0d3d 8fed 613d fc38 2b3d
00000330: 9cdb 173d 5a2e 8d3d 7d8e 22b8 30e0 41bd
00000340: e91e 16bd 975d 3e3d 2cc6 92bd 0f9a 543d
00000350: b9b5 5b3d 5165 06bd 50fa 423d 7b80 87bd
00000360: ebca 6f3d 558e 573d 440e 143d 5e60 1abc
00000370: 7537 423d 6362 273b bd99 76bd 2e80 5a3d
00000380: 82c3 6fbd e27e 2d3d 0b15 943d 92e5 ccbc
00000390: 74b7 833c c4fa 8f3c 40f5 6e3d e43d 983d
000003a0: 7642 44bd 3869 6b3d accc 133d 39fe 3e3d
000003b0: ae51 543d 9d40 5e3d afa1 393d 15a2 88bd
000003c0: 6972 2d3d 576d a7bc 5f2c 7e3d 79e7 26bd
000003d0: cd59 8a3d 5c2b 313d 4723 7b3d 2a2e 4a3d
000003e0: 0e9a 8f3d 46fe 2b3d de21 623d aa52 743d
000003f0: c7d0 94bd fe7c 243d 7489 233d d199 423d

features.4.weight f4 [128, 256]
0.03567246 -0.014296605 -0.021363989 0.040186543 -0.0048358287 0.050886262 -0.04126278 -0.0011085252
-0.007819486 -0.052206013 0.038619276 -0.039842118 0.04695757 -0.044335667 0.06809953 -0.021675346
-0.047498714 0.049569257 -0.0313324 -0.01845172 0.040163662 0.03405882 0.0137137985 0.012800772
0.06960306 0.051013187 0.0026773058 -0.012917385 -0.02034923 0.05797256 -0.036171347 -0.056515668
-0.042272456 -0.007737232 -0.0399784 0.046881 0.0046453043 -0.033709902 -0.037829917 0.03264124
-0.040963933 -0.030532444 -0.0710098 0.0022980976 0.056298807 -0.03068479 -0.0485854 -0.0063670473
-0.041685097 -0.02070698 0.063306 0.050330207 0.05008105 0.06311128 0.0039090277 0.013607234
0.0630619 0.033059936 -0.039826557 0.03704693 0.031414445 -0.0010677023 -0.037378505 0.0185606
0.0083202785 -0.029943507 -0.014570705 0.0015970907 -0.032189723 0.048844595 -0.05554082 -0.041353375
0.040570024 0.032274723 -0.014981618 0.032043394 -0.060216542 -0.060683355 0.036250908 0.03728612
0.0025363697 0.065277465 0.042075798 -0.00844316 -0.043075282 0.030065719 0.0012254831 -0.057334986
0.06853651 0.06740217 0.025231639 0.041289575 -0.012150497 -0.011662594 0.032438904 -0.06468666
0.025364496 0.021152683 0.06274329 0.026927574 -0.04163821 -0.058248 -0.059796367 -0.050061952
0.0048393854 0.012200886 -0.054927416 0.057015866 -0.056978207 -0.02373689 0.006057824 -0.02397808
0.04841229 0.014200935 -0.05901395 -0.014281369 0.011088465 -0.049777173 -0.014140538 0.04834268
0.038419668 0.032807175 -0.023337731 0.020048328 -0.02600109 -0.04990204 -0.026556868 -0.0064729913
-0.05500312 0.004168167 0.0021861368 -0.024782952 -0.050984316 0.062035717 -0.068828724 -0.018827735
0.009680453 -0.021768594 -0.042839922 -0.030399337 0.021740204 0.03232865 -0.016537197 -0.023220448
-0.049552083 0.033391733 0.06806897 -0.042099863 0.035075888 -0.031702008 0.026689105 -0.040511597
-0.04516366 -0.026739031 -0.029356092 0.0033133128 0.03924141 0.009685446 0.037179984 0.022225834
-0.064041615 -0.056876205 0.018610882 -0.0147919925 0.017870944 0.039633214 -0.016251197 0.053893484
0.01998757 -0.027588798 0.037165597 0.040340904 -0.03169618 0.03480666 0.03337122 -0.054485984
-0.030058645 -0.06684865 -0.06870241 -0.035558224 -0.018242013 0.032419022 0.03953864 -0.021382099
0.05687632 -0.04178818 -0.017471295 -0.0065308153 0.009965631 0.070535436 0.0052105817 -0.04877521
0.019930061 -0.012729929 0.0116997585 0.006770486 -0.008688786 -0.026024045 -0.0038698113 -0.0053674635
0.015055583 0.016474716 -0.038662393 -0.029329963 0.038494054 0.029303268 -0.032097034 -0.012027448
0.008114963 -0.023670172 -0.0036341609 0.04152596 -0.004304035 -0.039850816 0.00378473 -0.026347367
-0.024320107 0.027157998 -0.0067698224 -0.035172272 -0.0062422045 0.04973909 -0.00832247 -0.035095572
-0.04609036 0.050709415 -0.055493124 -0.0360176 0.05433826 0.040452156 -0.050616775 0.061806034
-0.0040104277 -0.038153432 0.011200063 -0.030947449 0.06094987 -0.009600477 0.04080004 0.051409468
-0.025111333 -0.015295977 -0.031719822 0.03130335 0.057566762 -0.018574867 -0.033913244 -0.036601663
0.001042164 0.01095774 -0.010620698 -0.008101721 0.043020558 0.032702338 -0.046234414 0.021104744
00000000: 491d 123d 4f3c 6abc 8803 afbc a59a 243d
00000010: df75 9ebb 1d6e 503d 2903 29bd ef4b 91ba
00000020: 4d1d 00bc f9d5 55bd 3f2f 1e3d 7d31 23bd
00000030: 9556 403d 5199 35bd c477 8b3d 7f90 b1bc
00000040: 038e 42bd 2209 4b3d 6756 00bd 1028 97bc
00000050: a782 243d 4381 0b3d d7af 603c 54ba 513c
00000060: 0d8c 8e3d 34f3 503d bd75 2f3b 71a3 53bc
00000070: 6eb3 a6bc a374 6d3d 6828 14bd f97c 67bd
00000080: e225 2dbd 9b88 fdbb 64c0 23bd 4b06 403d
00000090: a337 983b 6513 0abd 8bf3 1abd d2b2 053d
000000a0: ccc9 27bd 2d1f fabc 966d 91bd ae9b 163b
000000b0: 9499 663d ab5e fbbc 7c01 47bd aaa2 d0bb
000000c0: febd 2abd afa1 a9bc 93a6 813d 0c27 4e3d
000000d0: c921 4d3d 7d40 813d 4d17 803b e0f0 5e3c
000000e0: 9926 813d db69 073d 2c21 23bd 86be 173d
000000f0: 6fac 003d 25f2 8bba 341a 19bd 660c 983c
00000100: c751 083c 164c f5bc f7b9 6ebc 7955 d13a
00000110: 5fd9 03bd 4511 483d c57e 63bd 2862 29bd
00000120: c12c 263d 8032 043d 7675 75bc ef3f 033d
00000130: 9fa5 76bd 1c8f 78bd d57b 143d 55b9 183d
00000140: 3939 263b 31b0 853d ac57 2c3d 2e55 0abc
00000150: b56f 30bd 624c f63c 64a0 a03a 17d8 6abd
00000160: df5c 8c3d 260a 8a3d 95b2 ce3c 421f 293d
00000170: e112 47bc 7714 3fbc a8de 043d 717a 84bd
00000180: 34c9 cf3c 6448 ad3c 8e7f 803d 3797 dc3c
00000190: d48c 2abd 7495 6ebd 09ed 74bd c30d 4dbd
000001a0: b593 9e3b 3ae6 473c 92fb 60bd 7889 693d
000001b0: fb61 69bd de73 c2bc b680 c63b ae6d c4bc
000001c0: f74b 463d 0aab 683c 9db8 71bd 67fc 69bc
000001d0: 65ac 353c 26e3 4bbd b7ad 67bc f902 463d
000001e0: f15d 1d3d d160 063d c52e bfbc 643c a43c
000001f0: 3d00 d5bc 1566 4cbd ca8d d9bc 631b d4bb
00000200: f44a 61bd 1e95 883b 4a45 0f3b 9e05 cbbc
00000210: eed4 50bd 2a19 7e3d 13f6 8cbd 9f3c 9abc
00000220: c39a 1e3c 0d54 b2bc ea78 2fbd 0808 f9bc
00000230: 8318 b23c 0c6b 043d 0479 87bc cf38 bebc
00000240: 20f7 4abd c5c5 083d bf67 8b3d e870 2cbd
00000250: bcab 0f3d f7d9 01bd 1ca3 da3c 7def 25bd
00000260: 88fd 38bd d00b dbbc 307c f0bc 2a24 593b
00000270: 9abb 203d b4af 1e3c 0a4a 183d f412 b63c
00000280: 4028 83bd 06f7 68bd d975 983c 1d5a 72bc
00000290: 1666 923c 7056 223d 3b21 85bc 6abf 5c3d
000002a0: f9bc a33c e701 e2bc f43a 183d 813c 253d
000002b0: dbd3 01bd 6e91 0e3d 43b0 083d b22c 5fbd
000002c0: 8c3d f6bc f2e7 88bd d9b3 8cbd 80a5 11bd
000002d0: 4670 95bc cfc9 043d 45f3 213d 8329 afbc
000002e0: 25f7 683d 152a 2bbd f61f 8fbc 7300 d6bb
000002f0: e346 233c e274 903d 87bd aa3b 84c8 47bd
00000300: 5e44 a33c 3191 50bc 58b0 3f3c f4da dd3b
00000310: 695b 0ebc 6130 d5bc a99c 7dbb 8ce1 afbb
00000320: b1ab 763c fcf5 863c 755c 1ebd 6445 f0bc
00000330: f1ab 1d3d 680d f03c 2e78 03bd c60e 45bc
00000340: 9ff4 043c f3e7 c1bc 1a2b 6ebb 2017 2a3d
00000350: dd08 8dbb 9c3a 23bd 3c09 783b 6fd6 d7bc
00000360: f63a c7bc 737a de3c 63d5 ddbb cd10 10bd
00000370: 688b ccbb 37bb 4b3d f85a 08bc 60c0 0fbd
00000380: 3fc9 3cbd adb4 4f3d c24c 63bd 3187 13bd
00000390: cc91 5e3d 29b1 253d 8953 4fbd 5328 7d3d
000003a0: e869 83bb c646 1cbd 7880 373c 8185 fdbc
000003b0: 92a6 793d 524b 1dbc f11d 273d bc92 523d
000003c0: 48b6 cdbc fa9b 7abc a5ec 01bd f137 003d
000003d0: 20cb 6b3d 522a 98bc 9de8 0abd a0eb 15bd
000003e0: 3999 883a 1888 333c 7002 2ebc 15bd 04bc
000003f0: 5336 303d e3f2 053d 4c60 3dbd dbe3 ac3c

features.4.bias f4 [128]
-0.03679719 -0.00021983199 0.058992166 0.04872952 -0.04114555 0.028535271 -0.011343414 0.01866208
-0.05977118 0.026970962 -0.008006404 0.01231845 0.02116984 -0.043083817 -0.03084083 0.049748976
-0.0028670477 0.0043050973 0.054553397 -0.06531922 -0.037522662 0.040367857 -0.01957528 0.0048213927
0.029148858 0.055473942 -0.06125342 0.009103309 0.05134439 0.05680121 0.03647863 0.04890671
0.019141417 -0.031222288 -0.04468688 0.02646154 0.028357055 0.019366045 0.0038298706 0.010558789
-0.017639002 -0.017891625 0.053016003 -0.011451215 0.006341467 0.008278937 -0.021670645 -0.0037487447
-0.0011263717 0.054127432 -0.0049791737 0.047753904 0.017697856 0.044923212 -0.0683309 0.05217378
0.00682284 -0.02362648 0.027402235 0.05941427 -0.00689701 -0.06091418 0.0059118164 -0.005825197
0.027352897 -0.031401627 -0.012653089 -0.067265384 -0.030168245 0.0020460035 0.007545876 -0.017449096
-0.046714477 -0.05995328 0.006569796 0.026318204 -0.016762018 -0.029105628 0.04066146 -0.03453625
-0.0030863837 -0.040108707 0.020525042 -0.015252871 -0.041055664 -0.051612526 0.02933582 -0.017578501
0.04947348 0.013091321 0.026031204 0.060278367 -0.07040407 -0.034864478 0.037226565 0.061076913
-0.0004590591 -0.045102146 0.011038413 0.02934301 0.0048644054 0.03898434 0.04726116 -0.051908355
0.0066453298 0.015112673 0.0462577 0.018169139 -0.005093748 0.019045625 -0.010952094 -0.024088483
-0.054213196 -0.051486596 0.00021979139 0.0061120265 -0.04510743 0.04752102 -0.054360785 -0.012861886
0.050681222 -0.02927356 -0.007285861 -0.0020693033 0.048360307 -0.000366061 -0.030414732 -0.041575164
00000000: a6b8 16bd b382 66b9 c5a1 713d 9b98 473d
00000010: 3c88 28bd cdc2 e93c bad9 39bc 38e1 983c
00000020: a0d2 74bd 35f2 dc3c 4b2d 03bc 53d3 493c
00000030: 5f6c ad3c a878 30bd e9a5 fcbc 95c5 4b3d
00000040: 14e5 3bbb c611 8d3b 6273 5f3d 15c6 85bd
00000050: 5db1 19bd c458 253d 565c a0bc c6fc 9d3b
00000060: 96c9 ee3c a538 633d dee4 7abd 0c26 153c
00000070: 7f4e 523d 63a8 683d 9e6a 153d 6752 483d
00000080: 76ce 9c3c e2c5 ffbc 9709 37bd dfc5 d83c
00000090: 0e4d e83c 8aa5 9e3c 91fe 7a3b c5fe 2c3c
000000a0: ab7f 90bc 7591 92bc 4f27 593d e09d 3bbc
000000b0: 15cc cf3b 61a4 073c a386 b1bc 80ad 75bb
000000c0: c3a2 93ba bab4 5d3d 5628 a3bb 9999 433d
000000d0: 18fb 903c 6701 383d 12f1 8bbd 2cb4 553d
000000e0: 2192 df3b 528c c1bc a77a e03c 615c 733d
000000f0: 5000 e2bb 2681 79bd e9b7 c13b 4be1 bebb
00000100: 2f13 e03c fe9e 00bd e74e 4fbc 6fc2 89bd
00000110: 6523 f7bc 3e16 063b 6543 f73b 68f1 8ebc
00000120: ae57 3fbd 9291 75bd 7147 d73b 4699 d73c
00000130: 8050 89bc ed6e eebc a28c 263d e275 0dbd
00000140: ed44 4abb 0749 24bd 2224 a83c 2ee7 79bc
00000150: fc29 28bd a867 53bd ac51 f03c ca00 90bc
00000160: b4a4 4a3d fb7c 563c 643f d53c 73e6 763d
00000170: 0230 90bd 0ece 0ebd e27a 183d c92b 7a3d
00000180: dfad f0b9 07bd 38bd 76da 343c c160 f03c
00000190: 9765 9f3b 0bae 1f3d eb94 413d db9d 54bd
000001a0: 11c1 d93b 259b 773c b778 3d3d 72d7 943c
000001b0: 75e9 a6bb 9205 9c3c 6970 33bc 3655 c5bc
000001c0: a80e 5ebd 9ce3 52bd cd77 6639 6547 c83b
000001d0: 92c2 38bd 67a5 423d 6aa9 5ebd a9ba 52bc
000001e0: 1d97 4f3d 1bcf efbc 3bbe eebb 269d 07bb
000001f0: 7515 463d e0eb bfb9 5128 f9bc b84a 2abd

features.6.weight f4 [128]
1.0354916 1.0086542 1.0595698 1.0090958 1.0045106 1.0081594 0.9786229 1.0020636
0.9742699 1.0213342 0.951309 1.0053425 0.99396515 0.9832373 1.0633092 0.997027
0.99927545 0.9596502 1.0123951 1.0240159 0.97066134 1.0012765 0.9695965 0.97305065
0.99988997 1.0024515 1.0149673 1.026532 1.0314082 0.998434 0.9856451 0.9941704
0.99968207 1.0302579 1.0050279 0.9992203 0.9887407 1.0289826 1.0225617 1.0060059
1.0231482 1.1182429 1.0109195 1.0339093 0.9893429 1.0140505 1.0080284 1.0211114
1.0071476 0.9905392 0.93971187 0.9763858 0.9956273 0.990502 0.98890483 1.0092742
1.0159764 1.0050968 0.97333866 0.99023294 1.0285474 1.0267357 1.022058 1.0261043
1.0040573 1.0242709 1.0021343 1.0073669 0.95498407 1.0042281 1.0223812 1.0284091
1.015152 1.0011843 1.0206084 1.0296404 1.0037158 1.0041865 0.9966065 0.9984092
0.9839573 1.1367759 1.0327749 1.0003285 0.9722003 0.9980948 0.9795269 0.95832384
1.1477871 0.9993695 0.9906118 1.0253279 0.96047485 1.0099381 0.9519206 0.94519144
1.0214171 1.0033258 1.0144613 1.0010766 0.99244666 1.0201882 1.0129648 1.0121828
1.0016996 1.0173498 1.0028483 1.0356132 1.0371567 0.9573607 0.9926306 1.0037291
0.9870305 1.0103785 0.99635834 0.9869364 1.0002857 1.0091435 0.9788818 1.0221559
1.0157977 1.017844 1.0225308 0.9754149 0.98242193 1.0202931 1.0291833 1.0112828
00000000: fd8a 843f 951b 813f fc9f 873f 0d2a 813f
00000010: ce93 803f 5e0b 813f 0887 7a3f 9f43 803f
00000020: c169 793f 14bb 823f fd88 733f 10af 803f
00000030: 8074 7e3f 71b5 7b3f 841a 883f 293d 7f3f
00000040: 84d0 7f3f a3ab 753f 2a96 813f f412 833f
00000050: 437d 783f d429 803f 7a37 783f d919 793f
00000060: caf8 7f3f 5550 803f 73ea 813f 6765 833f
00000070: 2f05 843f 5f99 7f3f 3d53 7c3f f481 7e3f
00000080: 2aeb 7f3f 7edf 833f c1a4 803f e7cc 7f3f
00000090: 1c1e 7d3f b4b5 833f 4de3 823f cdc4 803f
000000a0: 85f6 823f 9522 8f3f cf65 813f 2457 843f
000000b0: 9445 7d3f 68cc 813f 1307 813f c7b3 823f
000000c0: 36ea 803f fa93 7d3f f590 703f 6bf4 793f
000000d0: 6ee1 7e3f 8a91 7d3f de28 7d3f e62f 813f
000000e0: 840b 823f 03a7 803f b92c 793f e87f 7d3f
000000f0: 71a7 833f 136c 833f ccd2 823f 6357 833f
00000100: f384 803f 4f1b 833f f045 803f 66f1 803f
00000110: d679 743f 8c8a 803f 63dd 823f e9a2 833f
00000120: 80f0 813f cf26 803f 4ca3 823f 42cb 833f
00000130: c279 803f 2f89 803f 9b21 7f3f bf97 7f3f
00000140: a0e4 7b3f df81 913f f831 843f c40a 803f
00000150: 1ee2 783f 2483 7f3f 46c2 7a3f b654 753f
00000160: b0ea 923f aed6 7f3f bc98 7d3f f23d 833f
00000170: aee1 753f a745 813f 12b1 733f 11f8 713f
00000180: ccbd 823f fb6c 803f ded9 813f 4723 803f
00000190: fc10 7e3f 8795 823f d5a8 813f 358f 813f
000001a0: b137 803f 8538 823f 555d 803f f98e 843f
000001b0: 8dc1 843f 9715 753f 0a1d 7e3f 327a 803f
000001c0: 08ae 7c3f 1554 813f 5711 7f3f dda7 7c3f
000001d0: 5d09 803f 9d2b 813f ff97 7a3f 01d6 823f
000001e0: a905 823f b648 823f 4ae2 823f cab4 793f
000001f0: 0180 7b3f f798 823f 47bc 833f b771 813f

features.6.bias f4 [128]
-0.025613721 -0.011727613 0.0064347265 -0.021719053 -0.044107303 0.002694174 0.035578884 -0.0042745327
0.0004428468 -0.012346812 0.007246155 -0.03698139 0.007976354 0.013264128 0.02009312 0.012543973
-0.017959174 0.031142045 -0.006634429 -0.03331155 -0.045505702 0.0035402554 0.021650514 0.018215042
-0.0054525817 0.007387607 -0.015449719 -0.00909986 -0.0760199 -0.034263704 0.022456031 0.0065468512
-0.025023472 -0.001781278 -0.0070841983 0.0023816037 0.010023023 -0.024376048 -0.014751048 0.0025112205
-0.049658902 0.02693395 -0.0027174132 -0.05824713 0.011166659 -0.015983738 -0.040437743 -0.013653012
0.022548757 -0.026164798 0.022689342 0.04162543 -0.05780905 0.015273586 -0.010786112 0.00025698807
-0.006795142 -0.0089588165 0.02111404 0.005713031 -0.02763883 -0.022354435 -0.030769771 -0.022664633
-0.0074490993 -0.014040106 0.0042233677 -0.01973403 0.024210706 0.01007136 -0.0726303 0.0143456515
-0.014663326 0.004614408 -0.021945436 -0.026798578 0.0019261168 -0.0009549715 -0.032725014 -0.0087259365
0.010705758 0.014826142 0.0021733646 0.007974042 0.0036954388 0.0029429917 0.018765679 -0.0293799
0.015646206 -0.0016782011 0.004884056 -0.0049664574 -0.007617622 -0.032499675 0.054249857 0.060282156
-0.021459086 -0.07104116 -0.01314034 0.008786163 0.0122527005 -0.018758256 -0.0003426792 -0.021203117
-0.07469014 -0.016271235 -0.0066977707 -0.0021661026 -0.034559246 -0.060411993 0.010628304 -0.010919297
-0.0014468717 0.0016583742 -0.0035498668 0.018997569 0.004904263 -0.011891899 -0.015701968 -0.015462177
-0.026720244 -0.021692434 -0.06278167 0.0113533065 -0.0021245219 -0.026076756 -0.0004803954 -0.0064775166
00000000: ded3 d1bc 2d25 40bc 66da d23b 28ec b1bc
00000010: dca9 34bd bd90 303b 2abb 113d 6111 8cbb
00000020: e42d e839 484a 4abc 2771 ed3b cc79 17bd
00000030: 41af 023c c951 593c 549a a43c 3c85 4d3c
00000040: 1e1f 93bc 9a1d ff3c a065 d9bb b171 08bd
00000050: 3064 3abd a103 683b 6b5c b13c b637 953c
00000060: 92ab b2bb bd13 f23b d120 7dbc 9417 15bc
00000070: 52b0 9bbd 1958 0cbd b6f5 b73c f886 d63b
00000080: 06fe ccbc c679 e9ba 9022 e8bb ae14 1c3b
00000090: 9b37 243c 47b0 c7bc 61ae 71bc 4a93 243b
000000a0: 2267 4bbd 96a4 dc3c a116 32bb 8b94 6ebd
000000b0: 5df4 363c 54f0 82bc 0ca2 25bd e2b0 5fbc
000000c0: 2cb8 b83c 8f57 d6bc 00df b93c 6d7f 2a3d
000000d0: 2fc9 6cbd 103e 7a3c 3cb8 30bc 5bbc 8639
000000e0: c8a9 debb 00c8 12bc 5af7 ac3c 6134 bb3b
000000f0: d46a e2bc a620 b7bc e310 fcbc 2eab b9bc
00000100: 9317 f4bb 7908 66bc 2d64 8a3b 43a9 a1bc
00000110: 8855 c63c 5802 253c 32bf 94bd 060a 6b3c
00000120: 723e 70bc 7634 973b eac6 b3bc b188 dbbc
00000130: c175 fc3a 0d57 7aba aa0a 06bd 3bf7 0ebc
00000140: 3467 2f3c 59e9 723c 026f 0e3b 8ea5 023c
00000150: 2d2f 723b 35df 403b 7bba 993c 1eae f0bc
00000160: 792c 803c 16f7 dbba 6e0a a03b aabd a2bb
00000170: 3f9d f9bb 611e 05bd 1935 5e3d 6cea 763d
00000180: f7ca afbc 077e 91bd 954a 57bc d7f3 0f3c
00000190: 8dbf 483c eaaa 99bc a0a9 b3b9 29b2 adbc
000001a0: 25f7 98bd 414b 85bc f978 dbbb 2cf5 0dbb
000001b0: ff8d 0dbd 9172 77bd 5722 2e3c dae6 32bc
000001c0: f5a4 bdba ce5d d93a e2a4 68bb caa0 9b3c
000001d0: f1b3 a03b 3dd6 42bc 6aa1 80bc 1255 7dbc
000001e0: 6ae4 dabc 55b4 b1bc ad93 80bd 3803 3a3c
000001f0: 903b 0bbb ec9e d5bc 94dd fbb9 5941 d4bb

actor.0.weight f4 [64, 128]
0.05899532 -0.024695452 -0.04497067 -0.013142568 0.038449496 -0.02443098 0.050184704 -0.009096192
-0.079964995 0.105416626 0.056968678 0.015817013 0.013808391 0.025016895 0.020077229 0.052493054
0.03667536 0.0076584388 0.1041895 0.004687554 0.057282496 -0.012685333 0.03197182 -0.04233475
-0.027850013 0.06532476 -0.026633294 -0.013636632 -0.0056150933 -0.0067883194 0.08875545 0.007315876
0.021357603 -0.09757671 -0.032712385 0.09985768 0.012026444 0.09558517 -0.0103342505 -0.011290306
-0.07169519 0.03162482 -0.040393684 0.017891439 0.052394304 0.01301826 0.045726612 0.062956
-0.056546863 -0.006432112 0.0901344 -0.05886695 -0.052396063 -0.037729446 -0.07146292 -0.04813478
-0.042010564 0.09617086 0.06322744 0.020342777 0.055635836 0.039995965 -0.04749715 -0.0075191185
0.08891927 0.016565265 0.09557041 -0.08169409 -0.016406087 -0.018067803 -0.02313145 -0.07550847
0.05431277 -0.01017974 0.0092931865 0.10137419 0.039588507 0.0551648 0.041598942 0.03321697
0.044567607 0.033547826 -0.08022906 -0.027081031 -0.01063097 0.076243415 -0.047698848 0.06947938
0.038289074 0.022069108 0.10364906 0.021149693 -0.021305045 -0.0345875 -0.033987537 0.06066821
-0.046854265 0.020957496 0.06780649 -0.060607046 0.032584295 0.0015417703 -0.07628946 0.031283394
-0.04163538 0.10218965 0.1039893 -0.07367407 0.003883842 0.017691791 -0.06247728 0.0265161
-0.009558152 -0.0136056505 0.049054984 -0.06348556 0.00660828 0.058988597 0.053237237 0.059412476
-0.04113527 0.08939736 -0.019048952 0.06662566 -0.015824348 0.047047023 -0.016741334 0.0636963
-0.0162351 -0.07496386 0.09599708 -0.10552765 -0.12096588 -0.05168463 -0.0625542 -0.057884276
0.034438618 -0.0062925657 -0.00037019735 -0.12546965 0.0036456068 -0.016625632 -0.03948653 -0.020354958
-0.032867424 -0.04777402 -0.010413186 -0.0052598817 0.040650595 -0.049699776 -0.109071024 0.052295074
0.0014665955 0.025461972 0.014975379 -0.083591014 -0.0223132 0.07077306 -0.012675097 -0.06902765
-0.024223557 0.07121735 -0.025389822 -0.079125956 -0.08803916 -0.09226861 0.05625809 0.00014712015
-0.011952484 -0.045042574 0.0688192 0.0823445 0.023374094 -0.09195314 -0.08540725 0.02824491
0.019603329 0.09837117 -0.06329365 -0.0059527317 0.04245574 -0.047101393 0.02741784 -0.10140366
-0.055360045 -0.1110438 -0.040840473 -0.020278187 0.008935179 -0.023398435 -0.023545213 -0.09938252
0.02293755 0.05155437 -0.07707814 -0.034785848 -0.030766621 -0.0600198 -0.011293314 0.0029866132
0.032500498 -0.06039753 -0.10726616 0.057919864 -0.021207755 0.07998552 0.032755215 0.0036869105
0.0018785212 -0.080691144 0.0032289953 -0.100101866 0.014338515 0.024167696 0.0104341945 0.035708316
0.04747718 0.028092789 -0.089830875 0.04195579 -0.012710423 -0.048160296 -0.036328048 -0.047073767
0.049709383 -0.08751301 0.018282855 -0.09676936 0.075306065 -0.062427115 0.12589851 0.02403586
-0.017507203 -0.017219575 -0.10610173 0.06513382 0.008291565 0.03415598 0.026008023 0.009258363
-0.09118268 -0.059315223 0.031118134 0.05013857 -0.09609327 0.036241245 0.0620368 -0.07973592
-0.10408491 0.031156518 0.07040494 -0.024764247 -0.04991335 -0.06784067 0.13174176 0.026496915
00000000: 14a5 713d 1e4e cabc 2a33 38bd ed53 57bc
00000010: 387d 1d3d 7b23 c8bc 7a8e 4d3d 3208 15bc
00000020: b0c4 a3bd ace4 d73d fd57 693d ae92 813c
00000030: 973c 623c 3bf0 cc3c 0079 a43c f502 573d
00000040: e738 163d a4f3 fa3b 4e61 d53d 0e9a 993b
00000050: 0da1 6a3d 25d6 4fbc e2f4 023d 3467 2dbd
00000060: b625 e4bc fdc8 853d 112e dabc 2e6c 5fbc
00000070: d1fe b7bb 8d70 debb 6bc5 b53d 04ba ef3b
00000080: 24f6 ae3c 4cd6 c7bd 6cfd 05bd 2f82 cc3d
00000090: 900a 453c 28c2 c33d fd50 29bc fafa 38bc
000000a0: eed4 92bd 0789 013d d973 25bd 1191 923c
000000b0: 699b 563d 8a4a 553c d44b 3b3d 13ef 803d
000000c0: af9d 67bd 77c4 d2bb 6298 b83d 791e 71bd
000000d0: 419d 56bd 318a 1abd 275b 92bd fa28 45bd
000000e0: 4513 2cbd 3af5 c43d 637d 813d e5a5 a63c
000000f0: 67e2 633d cfd2 233d 5f8c 42bd f062 f6bb
00000100: 4e1b b63d e1b3 873c 6bba c33d 3b4f a7bd
00000110: 0f66 86bc ee02 94bc 2b7e bdbc 2fa4 9abd
00000120: 1177 5e3d edc8 26bc 7342 183c 459d cf3d
00000130: 8f27 223d 7cf4 613d a763 2a3d 840e 083d
00000140: 868c 363d 7269 093d 224f a4bd 0ad9 ddbc
00000150: 852d 2ebc 8225 9c3d de5f 43bd 354b 8e3d
00000160: 01d5 1c3d 46ca b43c f545 d43d 1f42 ad3c
00000170: eb87 aebc 9fab 0dbd 8436 0bbd 3b7f 783d
00000180: 42ea 3fbd 0eaf ab3c 21de 8a3d 183f 78bd
00000190: 1c77 053d 3a15 ca3a a63d 9cbd 0423 003d
000001a0: dc89 2abd cf48 d13d 58f8 d43d 6ee2 96bd
000001b0: 0e88 7e3b 60ee 903c 2de8 7fbd 4b38 d93c
000001c0: cc99 1cbc 3cea 5ebc e1ed 483d b804 82bd
000001d0: 458a d83b 079e 713d 4a0f 5a3d 7f5a 733d
000001e0: 757d 28bd f715 b73d 8c0c 9cbc 0973 883d
000001f0: 10a2 81bc 61b4 403d 1f25 89bc 3573 823d
00000200: 79ff 84bc a786 99bd 1e9a c43d e11e d8bd
00000210: f6bc f7bd 43b3 53bd 6b1c 80bd 1018 6dbd
00000220: 820f 0d3d de31 cebb 0c17 c2b9 1e7b 00be
00000230: 22eb 6e3b 7a32 88bc a1bc 21bd 71bf a6bc
00000240: fe9f 06bd b1ae 43bd 119c 2abc 165b acbb
00000250: 3d81 263d fe91 4bbd a160 dfbd 5c33 563d
00000260: c73a c03a a095 d03c 4b5b 753c c431 abbd
00000270: 2cca b6bc 77f1 903d 36ab 4fbc 5e5e 8dbd
00000280: 7b70 c6bc 67da 913d 51fe cfbc ca0c a2bd
00000290: e04d b4bd 53f7 bcbd e26e 663d 4444 1a39
000002a0: 5ad4 43bc 907e 38bd 15f1 8c3d 3ca4 a83d
000002b0: 077b bf3c ee51 bcbd ffe9 aebd df61 e73c
000002c0: 2997 a03c d376 c93d 1aa0 81bd 220f c3bb
000002d0: 12e6 2d3d 64ed 40bd 619b e03c b9ac cfbd
000002e0: 37c1 62bd ef6a e3bd 5748 27bd 711e a6bc
000002f0: db64 123c 13ae bfbc e4e1 c0bc 1089 cbbd
00000300: 87e7 bb3c ad2a 533d 25db 9dbd 9b7b 0ebd
00000310: 480a fcbc 52d7 75bd 9807 39bc 0ebb 433b
00000320: 3e1f 053d 6763 77bd 5cae dbbd 613d 6d3d
00000330: e3bb adbc 73cf a33d 552a 063d 18a0 713b
00000340: b638 f63a 6641 a5bd 8d9d 533b 3502 cdbd
00000350: 17ec 6a3c 55fb c53c 2ff4 2a3c e242 123d
00000360: 6e77 423d d922 e63c 40f9 b7bd d6d9 2b3d
00000370: 613f 50bc bb43 45bd b8cc 14bd 6cd0 40bd
00000380: 119c 4b3d 053a b3bd edc5 953c 042f c6bd
00000390: 113a 9a3d 93b3 7fbd 8aeb 003e dae6 c43c
000003a0: 446b 8fbc 1110 8dbc dd4b d9bd e164 853d
000003b0: 58d9 073c 24e7 0b3d c70e d53c 64b0 173c
000003c0: fcbd babd 85f4 72bd 75eb fe3c 1a5e 4d3d
000003d0: 8ccc c4bd b371 143d 4d1a 7e3d 964c a3bd
000003e0: 782a d5bd f43b ff3c 7730 903d 64de cabc
000003f0: f171 4cbd 0df0 8abd 50e7 063e 0f10 d93c

actor.0.bias f4 [64]
0.0022207731 -0.061566643 -0.058789995 0.012836734 0.045897525 -0.0486128 0.046244603 -0.062128033
0.018287828 0.009894909 -0.07264289 -0.0417839 -0.035695534 0.08918912 0.048294738 -0.0798756
0.06619531 -0.066113286 -0.0461331 -0.031817373 0.12217078 0.07435397 0.07379935 -0.08836652
0.0620183 -0.037361145 -0.014983194 0.028541578 0.05026189 0.026034215 0.038091347 -0.0068335957
-0.028059896 0.061230414 0.017217532 0.017480915 -0.04881341 0.024685856 0.082380734 0.0710855
-0.012342952 -0.016715571 -0.057748206 0.037383076 0.081813015 0.06598048 -0.025951477 0.11675567
-0.054844685 -0.027178178 -0.04767772 0.04991451 0.0061223884 0.013331856 -0.010871838 -0.089476645
-0.053436242 0.035546243 0.005385135 0.0361425 -0.07376205 -0.014364466 0.053746667 -0.07892724
00000000: 648a 113b 4e2d 7cbd c7cd 70bd 2a51 523c
00000010: 0bff 3b3d 371e 47bd fb6a 3d3d f779 7ebd
00000020: 5bd0 953c 421e 223c ccc5 94bd 9825 2bbd
00000030: 7b35 12bd c9a8 b63d b4d0 453d d295 a3bd
00000040: 6891 873d 6766 87bd 10f6 3cbd ef52 02bd
00000050: ad34 fa3d e546 983d 1d24 973d 82f9 b4bd
00000060: e706 7e3d 0008 19bd 127c 75bc 07d0 e93c
00000070: 69df 4d3d b545 d53c ac05 1c3d 5bec dfbb
00000080: dedd e5bc becc 7a3d c80b 8d3c 2334 8f3c
00000090: 92f0 47bd fe39 ca3c 3bb7 a83d 4695 913d
000000a0: 183a 4abc 18ef 88bc 6289 6cbd ff1e 193d
000000b0: 958d a73d c620 873d 3198 d4bc 991d ef3d
000000c0: d2a4 60bd c5a4 debc b749 43bd 2873 4c3d
000000d0: 519e c83b db6d 5a3c cb1f 32bc 883f b7bd
000000e0: f6df 5abd f098 113d c975 b03b 280a 143d
000000f0: 8f10 97bd f058 6bbc 7725 5c3d 9ba4 a1bd
